HW2/preTrained/LunarLander-v2_0.008009107519796445.pth (torch, 75599 bytes, 7 tensors)

shared_layer1.weight f4 [128, 8]
0	0xbca99013	-0.020698583
1	0xbe0afeb5	-0.13573726
2	0xbf652adf	-0.8951854
3	0xbf26a615	-0.6509717
4	0x3e62feab	0.2216746
5	0xbcb173c5	-0.021661649
6	0x3e9b11c6	0.30286998
7	0xbe0b729d	-0.1361794
8	0x3db2fc4a	0.087395266
9	0xbeebb84b	-0.46039042
10	0x3dd05a6a	0.10173495
11	0x3ecdd0a8	0.40198255
12	0x3e2d29ee	0.16910526
13	0xbdbb9c7f	-0.09160709
14	0xbe2e04d2	-0.16994026
15	0x3e7e06cc	0.2480728
16	0xbe32fc7e	-0.1747913
17	0x3dac5b20	0.08415818
18	0x3eb9dcc7	0.36301252
19	0xbf5993f8	-0.8499141
20	0x3f3b7f83	0.7324144
21	0x3ee8a336	0.4543702
22	0x3dae788d	0.08519087
23	0xbd9b86c8	-0.07594067
24	0xbdfaa1d9	-0.12237901
25	0x3d7d3695	0.06181963
26	0x3e1631fd	0.14667507
27	0x3fecbccc	1.8495116
28	0x3ceeded2	0.029158983
29	0x3da0792c	0.07835612
30	0x3db351f0	0.08755863
31	0x3e7efefb	0.24901955
32	0x3e13961d	0.14412732
33	0x3e182884	0.14859205
34	0x3ed8010f	0.42188308
35	0xbf3224c8	-0.69587374
36	0xbec78217	-0.38966438
37	0x3de9f33a	0.11423345
38	0xbcbaaa50	-0.02278629
39	0xbc64c964	-0.013964031
40	0x3f2d8bd7	0.67791504
41	0xbd87f6f8	-0.066389024
42	0x3f4bd132	0.7961608
43	0x3d3c37ab	0.045951527
44	0xbec4f33b	-0.3846682
45	0xbe8f2b7f	-0.27962872
46	0x3e2c5660	0.16829824
47	0xbe21d703	-0.15804677
48	0x3d4c7c0c	0.049922988
49	0x3cc0b768	0.023524955
50	0xbf1fee02	-0.62472546
51	0x3f8a783b	1.0817941
52	0x3ed09a0e	0.40742534
53	0xbdc2b32d	-0.09506831
54	0x3e140b16	0.14457354
55	0x3cd70b6a	0.02625056
56	0xbd293d83	-0.041318428
57	0xbd28efde	-0.04124438
58	0x3dd6150c	0.10453233
59	0xbf585f69	-0.84520584
60	0x3ea35096	0.3189742
61	0xbd5806c0	-0.052740812
62	0x3b4e2e12	0.0031460566
63	0x3de39f5d	0.111143805
64	0xbe745851	-0.23861815
65	0x3da71356	0.08157985
66	0xbeafaf44	-0.34313405
67	0xbe51f12c	-0.20502156
68	0x3f0775c0	0.5291405
69	0xbe1e134a	-0.15437046
70	0xbbf68fb3	-0.0075244545
71	0xbd589143	-0.052872907
72	0xbe666810	-0.22500634
73	0xbde479c1	-0.11156035
74	0xbe60b5e4	-0.21944386
75	0xbe15e1bf	-0.14636897
76	0x3ea64aad	0.32478848
77	0xbd9cfb21	-0.076650865
78	0x3df78d39	0.12087483
79	0xbdda4543	-0.10657742
80	0xbe375966	-0.17905197
81	0x3e012539	0.12611856
82	0x3ee8ae0c	0.45445287
83	0xbf630dd9	-0.88693005
84	0xbee477af	-0.4462256
85	0x3d4be339	0.049777243
86	0xbce0e503	-0.027452951
87	0xbccf334c	-0.025293015
88	0xbe681a2b	-0.22666232
89	0xbf386689	-0.72031456
90	0x3e452f17	0.19256245
91	0xbd0a7bfe	-0.033809654
92	0x3cebfb79	0.028806435
93	0xbd4b19b5	-0.049585063
94	0xbe104e26	-0.14092311
95	0x3eba2d30	0.363626
96	0xbea7f6ae	-0.3280539
97	0xbc7e5b5e	-0.015524713
98	0x3d7e6a6c	0.06211321
99	0xbd9061a1	-0.07049871
100	0x3e0e5bb5	0.13902171
101	0xbe0b65df	-0.1361308
102	0xbc6caf56	-0.0144461
103	0x3e27e086	0.16394243
104	0xbee2e46e	-0.44314903
105	0x3d8d6deb	0.06905731
106	0xbf34830b	-0.70512456
107	0xbe17f70f	-0.14840339
108	0x3f24e9b4	0.644191
109	0x3d8f5f56	0.07000606
110	0xbe354f94	-0.17706138
111	0x3ef641da	0.48097116
112	0xbe961be4	-0.29318154
113	0x3d4fbe82	0.05071879
114	0x3d58d251	0.05293495
115	0x3e891ec2	0.2678128
116	0xbd1e227d	-0.03860711
117	0x3e1f8b97	0.15580593
118	0xbea90203	-0.33009347
119	0xbe5aff27	-0.21386395
120	0x3e0c3265	0.13691099
121	0x3d5a1e34	0.05325146
122	0xbc936190	-0.017990857
123	0xbf2ba66c	-0.67050815
124	0x3f08dece	0.5346497
125	0x3edaff81	0.4277306
126	0x3e124a80	0.14286232
127	0x3d3ffc90	0.04687172
128	0xbeecb117	-0.4622886
129	0x3d70d3b2	0.05879564
130	0xbe8e1924	-0.27753556
131	0xbea152d9	-0.3150852
132	0x3e93aab5	0.28841177
133	0xbec261ec	-0.37965333
134	0xbe565a5a	-0.20932904
135	0x3c81363c	0.015772931
136	0x3d605dae	0.05477684
137	0x3e3aec0c	0.18254107
138	0x3f778754	0.9669087
139	0x3e86a772	0.26299626
140	0xbf0a909f	-0.54126924
141	0x3db1fa8f	0.086903684
142	0x3eb7c62d	0.35893384
143	0xbc85df65	-0.016341874
144	0x3d50c230	0.05096644
145	0x3ed21dd8	0.41038394
146	0xbeb3f482	-0.35147482
147	0x3f9bf2b8	1.2183447
148	0x3dc0bcb6	0.09410994
149	0x3d9e1595	0.0771896
150	0x3dd223b5	0.10260717
151	0xbd1be24e	-0.038057618
152	0x3e577782	0.21041682
153	0x3e3417e4	0.17587239
154	0x3f3f021f	0.7461261
155	0xbe9f73dc	-0.3114308
156	0xbefc54ab	-0.49283347
157	0xbd177523	-0.036976945
158	0xbc5923bb	-0.013253148
159	0xbe19b8f4	-0.1501196
160	0xbe9b2f4c	-0.30309522
161	0x3e304813	0.17214994
162	0xbefff046	-0.49988002
163	0x3f7361f8	0.95071363
164	0x3e51da4b	0.20493428
165	0x3e02395e	0.12717196
166	0xbdbf031b	-0.09326764
167	0x3ea51206	0.32240313
168	0x3dfa1e1d	0.12212775
169	0x3df7ee96	0.121060535
170	0xbee84fb8	-0.4537332
171	0x3e0cfa2b	0.13767307
172	0xbd3c59ed	-0.045984197
173	0xbdce5358	-0.1007449
174	0xbe585277	-0.21125208
175	0xbd02f091	-0.031967703
176	0xbd409ae8	-0.04702273
177	0xbe210de2	-0.15727952
178	0xbf590186	-0.8476795
179	0xbe79d11b	-0.24396174
180	0x3e4a5fa0	0.1976304
181	0x3e82b189	0.25526074
182	0xbdc15c0e	-0.09441386
183	0x3e07ef40	0.1327486
184	0x3dbe0a41	0.092792995
185	0x3ddfb27c	0.10922715
186	0x3dfad3d8	0.12247437
187	0xbf483891	-0.78211313
188	0x3f1823b8	0.594295
189	0x3eceeb32	0.40413815
190	0x3e33d1f9	0.17560567
191	0xbdcb6d05	-0.09932903
192	0xbe88961d	-0.26677027
193	0xbe001910	-0.1250956
194	0x3f3c1d20	0.7348194
195	0xbd319c80	-0.04336214
196	0xbf0506ae	-0.5196332
197	0x3d3cd1e1	0.046098594
198	0x3e73183e	0.23739716
199	0x3d0ae6dc	0.03391157
200	0xbee9b7b3	-0.45647964
201	0xbdd3528c	-0.10318479
202	0xbf392a5c	-0.7233026
203	0xbde19457	-0.11014622
204	0x3ea58185	0.32325378
205	0xbd5ceba1	-0.05393565
206	0x3e027948	0.12741578
207	0x3e10e569	0.14150013
208	0x3e926044	0.2858907
209	0xbe01743c	-0.12641996
210	0xbf068409	-0.5254522
211	0xbe1327f3	-0.14370708
212	0x3eff6401	0.49880984
213	0xbe93c3c1	-0.28860286
214	0x3dfc6a95	0.123250164
215	0xbd91422e	-0.07092701
216	0x3d9261c5	0.07147554
217	0xbeb7fc39	-0.35934618
218	0x3dfd112d	0.12356792
219	0xbe2c3eac	-0.16820782
220	0xbcdc1a0f	-0.026867894
221	0xbd99b685	-0.07505516
222	0xbef325d1	-0.4748979
223	0x3efe2162	0.49634844
224	0xbd497309	-0.04918197
225	0xbe09d386	-0.13459596
226	0xbea33cfa	-0.3188246
227	0xbe26a446	-0.16273603
228	0x3f059058	0.52173376
229	0xbe6a2ed0	-0.2286942
230	0xbe449df4	-0.1920088
231	0xbe6778c0	-0.22604656
232	0xbd040b82	-0.032237537
233	0x3e3262c3	0.17420487
234	0x3f10cf82	0.5656663
235	0x3fb46466	1.4093139
236	0xbe65bf82	-0.22436336
237	0x3e2ada53	0.16684847
238	0x3eca90a5	0.3956348
239	0xbd9d75cf	-0.07688486
240	0x3e92fc12	0.2870794
241	0x3d1127db	0.0354384
242	0x3f3dae79	0.7409435
243	0xbe0faea2	-0.14031461
244	0xbe283f3b	-0.1643037
245	0xbd443a33	-0.047907066
246	0x3d9f3c26	0.07775144
247	0xbac568fc	-0.0015061195
248	0x3dff1570	0.12455261
249	0x3d2bf30b	0.04197983
250	0x3f9308de	1.1487081
251	0x3e3aed4c	0.18254584
252	0xbe9ac604	-0.302292
253	0xbdd07756	-0.101790115
254	0x3e95b1c9	0.29237202
255	0xbe34ee14	-0.17668945

shared_layer1.bias f4 [128]
0	0x3e9ce42e	0.30642837
1	0xbe7bcbc4	-0.24589449
2	0xbd915410	-0.07096112
3	0x3ddae237	0.10687678
4	0x3e555983	0.20834927
5	0x3e9beddb	0.30454907
6	0x3e0eea5b	0.13956587
7	0x3e7a08dc	0.24417442
8	0xbeb3657a	-0.35038358
9	0xbe3e028c	-0.18555659
10	0x3e5c552f	0.2151687
11	0xbdde398b	-0.10850819
12	0xbf040a6f	-0.5157842
13	0xbe42e561	-0.19032814
14	0xbecd751b	-0.40128407
15	0xbe0a0824	-0.13479668
16	0x3e3a2728	0.18179
17	0xbe7946d2	-0.24343422
18	0xbeb62569	-0.35575417
19	0x3ebc3a60	0.36763287
20	0xbd9eade9	-0.077480145
21	0xbec560c8	-0.385504
22	0x3d7c3ae0	0.061579585
23	0xbdf246f3	-0.11829939
24	0xbe1e4522	-0.1545606
25	0xbdd7030c	-0.10498628
26	0xbe8cb3dc	-0.27480972
27	0xbe0f3302	-0.13984302
28	0xbe2c0e3a	-0.16802302
29	0x3ce5a8ad	0.028034532
30	0x3d5b578c	0.053550288
31	0xbb6dad34	-0.0036266567
32	0xbe99b396	-0.30019826
33	0x3ca57b99	0.020200538
34	0xbe9e99e6	-0.3097679
35	0x3db1b74f	0.086775415
36	0xbda86dc3	-0.082240604
37	0xbe4bb6c7	-0.19893943
38	0x3e6f0e2c	0.2334525
39	0x3dfcbac7	0.123403125
40	0xbea329fb	-0.31867966
41	0xbd03424a	-0.03204564
42	0xbe11be52	-0.14232758
43	0xbe9bb9fb	-0.3041533
44	0xbe86293f	-0.26203343
45	0xbd4e85eb	-0.050420683
46	0xbecc19b2	-0.39863354
47	0x3e3be4ec	0.18349046
48	0x3e9a999f	0.3019533
49	0xbd575d15	-0.052579004
50	0xbec1e564	-0.37870324
51	0xbe95fa0f	-0.29292342
52	0x3e7acf33	0.24493103
53	0xbd9635b2	-0.0733446
54	0xbee58540	-0.44828224
55	0x3e859d03	0.26096353
56	0xbebafb9b	-0.36520085
57	0xbd8e729b	-0.06955453
58	0x3dd28f4c	0.10281238
59	0xbe107e01	-0.14110567
60	0x3ebcf74c	0.36907423
61	0xbeb5bd5c	-0.35496032
62	0xbedcd669	-0.43132332
63	0xbcbd39f4	-0.023098923
64	0x3e399b15	0.18125565
65	0x3d63e6e8	0.05564013
66	0xbe6b2d51	-0.22966506
67	0x3d7be04e	0.06149321
68	0xbddf7c60	-0.109123945
69	0x3d396b97	0.04526862
70	0xbe69619c	-0.22791141
71	0xbe8c2464	-0.27371514
72	0x3e7cffd0	0.2470696
73	0xbdd8ad03	-0.10579874
74	0x3e3c36bd	0.18380256
75	0x3e925b77	0.28585407
76	0xbe28366e	-0.16427013
77	0x3ce61786	0.028087389
78	0xbe2714eb	-0.16316573
79	0xbccf2752	-0.025287304
80	0xbce7b088	-0.028282419
81	0x3e0529ec	0.13004273
82	0x3d81e071	0.06341637
83	0xbebcb522	-0.36856943
84	0x3cef7001	0.029228212
85	0xbd81f98c	-0.063464254
86	0x3c3eaabf	0.011637389
87	0xbea92646	-0.33037013
88	0x3dccfd21	0.10009218
89	0x3e170bc4	0.14750582
90	0xbeb0c0b4	-0.3452202
91	0x3d9ad2a7	0.0755971
92	0x3e206078	0.156618
93	0xbe9afc14	-0.30270445
94	0xbcedc6df	-0.029025493
95	0x3d6070fb	0.054795247
96	0xbd927ca8	-0.071526825
97	0xbe050454	-0.12989932
98	0xbd4cca8d	-0.049997855
99	0xbed86ac7	-0.42268965
100	0xbec8cd85	-0.392193
101	0xb8c0e2fa	-9.197551e-05
102	0xbe1deeaf	-0.15423082
103	0xbe40b254	-0.18818027
104	0xbed5f981	-0.4179192
105	0xbe9263e6	-0.2859184
106	0x3d26cf52	0.04072506
107	0x3e7dce1a	0.24785653
108	0xbde46b7b	-0.11153313
109	0xbe790a4e	-0.24320337
110	0xbea6b749	-0.3256171
111	0xbc3d64ef	-0.011559709
112	0xbeec2f79	-0.4612997
113	0xbd8ccd95	-0.06875149
114	0x3e933c62	0.28757006
115	0x3ead0e7d	0.33800116
116	0xbe2677ff	-0.16256712
117	0xbeaff3a5	-0.34365574
118	0xbdda2934	-0.1065239
119	0xbdeb06b0	-0.11475885
120	0x3dd5fc93	0.10448565
121	0x3e9a35d5	0.30119196
122	0x3e1a10d8	0.15045488
123	0xbe4d765e	-0.20064685
124	0x3d620401	0.0551796
125	0x3e0a4b9e	0.13505408
126	0x3d497d28	0.049191624
127	0xbe709a66	-0.23496398

shared_layer2.weight f4 [128, 128]
0	0xbcaf098f	-0.021366863
1	0xbc506c30	-0.012721106
2	0xbd07db71	-0.03316826
3	0xbdbe0d72	-0.09279908
4	0x3c97a67f	0.018512009
5	0xbd77a49c	-0.060459718
6	0xbd468444	-0.048465982
7	0xbe088f6b	-0.1333596
8	0xbdd124a8	-0.1021207
9	0xbd858d5c	-0.06521103
10	0x3c9eba93	0.019376075
11	0x3cf87738	0.030330285
12	0x3c4cc4ca	0.01249809
13	0xbc9abfc4	-0.01889027
14	0xbd9e85a2	-0.07740332
15	0xbdecb66c	-0.11558232
16	0xbdff6e58	-0.12472218
17	0xbd2cad66	-0.042157553
18	0xbdaf3584	-0.08555129
19	0xbd109a87	-0.03530362
20	0xbdcb8676	-0.09937756
21	0x3cf24d28	0.029577807
22	0x3d1808e3	0.03711785
23	0x3bb566b0	0.005535923
24	0x3d3fb51e	0.046803586
25	0xbd229b2f	-0.039698776
26	0x3d07677d	0.03305768
27	0xbd756bb3	-0.059917163
28	0xbd493ad5	-0.049128372
29	0x3b58cc7c	0.0033080867
30	0xbd1543fb	-0.036441784
31	0x3d989468	0.07450181
32	0x3c166666	0.009179687
33	0xbdc518d4	-0.09623876
34	0xbd4f797f	-0.050652977
35	0xbb7fee40	-0.003905192
36	0xbd8c9cd5	-0.06865851
37	0xbe037c1c	-0.12840313
38	0xbd192c86	-0.037395976
39	0xbc8f2f8e	-0.01747873
40	0xbdcfb9c8	-0.10142857
41	0xbdd6f09e	-0.10495113
42	0x3c665c2e	0.014060063
43	0x3d5db45d	0.054127086
44	0xbe0001bc	-0.12500662
45	0x3cb65f9b	0.022262385
46	0xbbd8e49b	-0.006619049
47	0xbdf0b98c	-0.1175414
48	0xbb6004a2	-0.003418245
49	0x3dbbaaa5	0.09163407
50	0xbc040560	-0.008057922
51	0xbc95ce24	-0.018286772
52	0xbdb3ea6c	-0.08784947
53	0xbd455549	-0.048177037
54	0xbd3e427a	-0.046450116
55	0xbdf705e6	-0.12061672
56	0xbde49e6b	-0.11163028
57	0x3d833852	0.064072266
58	0xbdff2b90	-0.12459481
59	0xbdb4dab7	-0.08830779
60	0xbc802b5e	-0.01564568
61	0xbd4cf065	-0.050033946
62	0x3db2f5eb	0.087383114
63	0xbd86cadb	-0.0658166
64	0xbdc32895	-0.09529225
65	0xbbf7ab9d	-0.0075582997
66	0xbb452243	-0.0030080236
67	0x3ccf5dfa	0.025313366
68	0x3ccf4dea	0.025305707
69	0x3bc2e241	0.0059473817
70	0xbd393125	-0.045212884
71	0xba49d416	-0.0007699145
72	0x3d19a81f	0.03751385
73	0x3cf08e79	0.029364811
74	0x3c9bf790	0.019038945
75	0x3bd96ae0	0.006635055
76	0xbddd383b	-0.10801741
77	0xbbcb2950	-0.006199993
78	0x3d23f128	0.040024906
79	0x3c6d582e	0.014486356
80	0xbc839156	-0.016060513
81	0x3cb3d94c	0.021954201
82	0xbd68a642	-0.05679918
83	0xbe05e1d1	-0.13074423
84	0x3d85bf99	0.06530685
85	0x3cc26321	0.023728909
86	0xbdcd5fe6	-0.10028057
87	0xbd8fe8dd	-0.07026837
88	0xbd8908c6	-0.066911265
89	0xbcd02b85	-0.025411377
90	0xbd21b5e3	-0.0394801
91	0x3d0a761d	0.033804048
92	0x3d03c110	0.03216654
93	0xbdb0744a	-0.086159304
94	0xbd18e3ec	-0.03732674
95	0xbc4b02a9	-0.012390771
96	0xbdc6f46e	-0.0971459
97	0xbda666cb	-0.08125075
98	0x39c8873a	0.00038247724
99	0xbd38d99f	-0.045129415
100	0xbdc9c1e6	-0.09851436
101	0xbcc469d9	-0.023976253
102	0xbd69f8c9	-0.057122026
103	0xbd52052e	-0.05127447
104	0xbd8ff984	-0.07030013
105	0xbd993085	-0.074799575
106	0xbda2e7d2	-0.079543725
107	0xbde7bc8d	-0.1131526
108	0xbe07211b	-0.13196222
109	0xbb066ac8	-0.0020510424
110	0x3d7155ea	0.058919825
111	0xbda61aee	-0.08110605
112	0x3d1168b2	0.035500236
113	0xbca6dcd4	-0.02036897
114	0xbcc23ffe	-0.023712154
115	0xbb590780	-0.0033116043
116	0xbd93f970	-0.07225311
117	0xbd7dc973	-0.061959695
118	0xbdb74c58	-0.08950108
119	0x3c9bcefb	0.019019594
120	0x3c8f3984	0.01748348
121	0x3d540126	0.051758908
122	0xbde5764a	-0.112042025
123	0x3d43f70e	0.04784303
124	0xbda65987	-0.08122545
125	0xbc3055d7	-0.010762653
126	0xbdbebaec	-0.09312996
127	0xbcf749a5	-0.030186484
128	0xbd0a484a	-0.033760346
129	0xbce3592a	-0.027752478
130	0xbc1e7e3c	-0.009673651
131	0x3d542bf7	0.05179974
132	0xbe032874	-0.128084
133	0xbe1b4cf3	-0.15166073
134	0xbd679b35	-0.0565445
135	0xbb6b7bb5	-0.003593189
136	0xbe149fe9	-0.14514126
137	0xbdcaaac2	-0.09895851
138	0x3d1bd81c	0.038047895
139	0xbddb13b3	-0.10697117
140	0x3d0007bb	0.031257372
141	0xbdd0d1e4	-0.101962835
142	0xbc8201ed	-0.015870059
143	0xbdc11be6	-0.09429149
144	0xbdff30b5	-0.12460462
145	0xbd9fb5e7	-0.07798367
146	0xbe06048b	-0.1308767
147	0x3d894bb8	0.06703895
148	0x3cd92ded	0.026511157
149	0xbd92ace9	-0.07161886
150	0x3cd8f440	0.026483655
151	0x3da29bd3	0.07939877
152	0x3cfa333c	0.030542009
153	0xbcf3d5a8	-0.029764965
154	0x3d49eb0e	0.04929643
155	0xbdd77b53	-0.10521569
156	0xbdf4cea6	-0.119534776
157	0xbc5502a6	-0.01300112
158	0x3cba2c2d	0.022726143
159	0x3d455356	0.04817518
160	0xbd7ae81d	-0.061256517
161	0x3d81a303	0.0632992
162	0x3d842eb9	0.06454224
163	0x3d339554	0.043843582
164	0xbd065455	-0.03279527
165	0xbb36457a	-0.0027812407
166	0xbc9e812b	-0.019348701
167	0x3a9a4c2d	0.001177197
168	0xbd26754a	-0.0406392
169	0xbd8c44da	-0.0684907
170	0x3d23a07b	0.039947968
171	0xbce9dacc	-0.028546713
172	0xbd9e98a7	-0.0774396
173	0x3d0f12c2	0.03493
174	0x3c3a6dec	0.0113787465
175	0xbda95278	-0.08267683
176	0xbd7dbe11	-0.06194884
177	0xbd2180d5	-0.039429504
178	0xbd303ddd	-0.043027747
179	0x3cbefb20	0.023313105
180	0xbdbfa3bb	-0.09357401
181	0xbc8eca56	-0.017430466
182	0x3ba69510	0.0050836876
183	0xbd965736	-0.07340853
184	0x3c5058d2	0.012716489
185	0xbcd38828	-0.02582176
186	0xbc9c7dcb	-0.019102952
187	0xbcd69e0f	-0.026198415
188	0xbc62f385	-0.013852005
189	0xbdf3ce8c	-0.1190463
190	0x3da57ca7	0.08080416
191	0x3b2e2bc8	0.0026576389
192	0xbd34aefa	-0.044112183
193	0xbdd6e5a2	-0.10493018
194	0x3a87823e	0.0010338498
195	0xbdc85a9c	-0.09782907
196	0xbe01e6b1	-0.12685658
197	0xbd8397e6	-0.06425457
198	0xbd8e20a3	-0.06939819
199	0x3d180f9a	0.037124254
200	0x3cf1fcf7	0.029539568
201	0xbce6e10a	-0.028183479
202	0xbde2a0be	-0.110658154
203	0x3c731298	0.014835976
204	0xbd3aa2b3	-0.04556532
205	0xbe0b4a7d	-0.13602634
206	0x3d5b2a37	0.053507056
207	0xbe1281a3	-0.14307265
208	0xbcf7c134	-0.030243494
209	0xbe0b2dbd	-0.13591667
210	0xbd4513b7	-0.048114505
211	0xbb728b4c	-0.0037009297
212	0xbd55e684	-0.05222179
213	0xbd262569	-0.04056302
214	0x3b40ca92	0.0029417616
215	0x3c594fc8	0.01326365
216	0x3c9472d5	0.018121162
217	0x3cd7de5d	0.026351148
218	0xbd3cdf85	-0.046111602
219	0x3c58763f	0.013211786
220	0xbd8f02f6	-0.06982987
221	0xbd998188	-0.07495409
222	0xbdee1716	-0.11625497
223	0xbd0e8502	-0.034794815
224	0xbdae4a9b	-0.085103236
225	0xbc324b47	-0.010882205
226	0x3bd88094	0.0066071246
227	0xbd854b74	-0.06508532
228	0x3d68f71f	0.056876298
229	0xbdba6673	-0.09101572
230	0xbd84c133	-0.06482162
231	0xbd6f966d	-0.058493067
232	0x3c86d663	0.01645965
233	0xbd91d33a	-0.071203664
234	0xbdadb2c0	-0.084813595
235	0xbdbd786e	-0.09251486
236	0xbe0a9dd8	-0.13536775
237	0xbdc73602	-0.09727098
238	0x3d70b68a	0.058767833
239	0xbdac01ee	-0.083988056
240	0xbd0e4991	-0.034738127
241	0x3ce75fdc	0.028243951
242	0xbdd8fecd	-0.105954744
243	0xbb1a4180	-0.0023537576
244	0xbe01f326	-0.1269041
245	0xbda59314	-0.080846936
246	0xbdd309d6	-0.103046104
247	0xbdd6f3ed	-0.10495744
248	0x3bbd2e2e	0.0057733273
249	0x3d008620	0.03137791
250	0xbd981705	-0.074262656
251	0x3d8bc9d9	0.06825609
252	0xbc3d6c68	-0.011561491
253	0xbd086570	-0.033299863
254	0xbd50f92f	-0.05101889
255	0xbd9b6d09	-0.07589156

shared_layer2.bias f4 [128]
0	0x3c801784	0.015636213
1	0xbd2fc217	-0.042909708
2	0x3d36cdd6	0.044629894
3	0xbb8f23b2	-0.004368269
4	0xbc0551ad	-0.008137149
5	0xbdc7891f	-0.09742951
6	0xbd56689f	-0.05234587
7	0xbdca765d	-0.09885857
8	0x3d0fc70d	0.03510194
9	0xbc4ee576	-0.01262795
10	0xbd8e5cff	-0.06951331
11	0x3e7ec2af	0.24878953
12	0xbd47527c	-0.048662648
13	0xbb1ed695	-0.0024236788
14	0xbe3a8ed3	-0.18218546
15	0x3e1f4fa9	0.15557732
16	0x3c431abb	0.0119082285
17	0x3e16c6d7	0.14724289
18	0xbe05f12e	-0.13080284
19	0x3ccc8171	0.024964066
20	0xbd467fb7	-0.048461642
21	0x3d93d700	0.07218742
22	0xbd8d0d9f	-0.06887364
23	0x3d436319	0.04770193
24	0xbd8d4006	-0.06896977
25	0xbdc3f742	-0.09568645
26	0xbdbacae8	-0.091207325
27	0xbcc8b0bf	-0.024498342
28	0xbc44834c	-0.011994194
29	0x380db55a	3.3785916e-05
30	0x3dd3e1a7	0.10345774
31	0xbdc9e07a	-0.09857269
32	0xbdd922d9	-0.1060235
33	0x3e4ffbc6	0.20310888
34	0xbd8a1e9d	-0.0674412
35	0x3d2baa85	0.041910667
36	0x3dd38ac6	0.10329203
37	0xbd5346ef	-0.05158132
38	0xbdc6a391	-0.096991666
39	0xbdf43d99	-0.11925811
40	0xbdc9ab62	-0.09847142
41	0xbd8aec0b	-0.06783303
42	0x3e810d99	0.25205687
43	0xbe272822	-0.16323903
44	0xbdaf63d2	-0.08563961
45	0xbdc3a6ea	-0.09553321
46	0x3dc632a2	0.09677626
47	0x3b5f7e79	0.0034102483
48	0xbdce8a92	-0.10085024
49	0xbd871384	-0.06595519
50	0xbd233d8e	-0.039853625
51	0xbdae12d8	-0.08499688
52	0xbdd49dfd	-0.103816964
53	0xbd569049	-0.052383695
54	0x3e3b143a	0.18269435
55	0xbdd85883	-0.10563757
56	0xbe06265e	-0.13100573
57	0x3e362e91	0.17791201
58	0x3d4ccb0d	0.04999833
59	0xbd8d1169	-0.06888086
60	0xbbf6ae06	-0.0075280694
61	0x3e88aa2d	0.26692334
62	0xbd4ed0d6	-0.05049213
63	0xbd80f584	-0.062968284
64	0xbdee5ccc	-0.11638793
65	0xbdf11f38	-0.11773533
66	0xbd858f34	-0.065214545
67	0xbe2ddb97	-0.16978298
68	0xbe251762	-0.16122201
69	0x3e8e932e	0.27846664
70	0xbc3ca484	-0.011513833
71	0xbd04441a	-0.03229151
72	0x3c26571c	0.010152604
73	0x3dd0174f	0.10160696
74	0xbc91030e	-0.017701652
75	0xbdb55958	-0.088549316
76	0xbddc1957	-0.10747021
77	0xbd104bac	-0.035228416
78	0xbe0bd89c	-0.13656849
79	0xbc88acf0	-0.016684026
80	0xbdc2e740	-0.09516764
81	0x3df97b87	0.12181764
82	0xbe2be0e8	-0.16785014
83	0xbc8a792f	-0.016903488
84	0x3c80010a	0.015625495
85	0xbdac53c8	-0.084144175
86	0xbcfd0bd4	-0.03088943
87	0x3dda00ef	0.10644709
88	0xbe089b32	-0.13340452
89	0xbe7e1299	-0.24811782
90	0xbd45bde5	-0.0482768
91	0xbcc9e1c4	-0.024643786
92	0x3e2c994e	0.16855356
93	0xbdf18354	-0.11792627
94	0xbe02fc28	-0.12791502
95	0x3c8041cc	0.015656374
96	0x3bb7f950	0.005614437
97	0xbd04073a	-0.032233454
98	0x3e24dfcd	0.16100998
99	0xbd904f3c	-0.07046363
100	0xbcbe95f9	-0.023264872
101	0xbdf33d9a	-0.11876984
102	0x3cd61072	0.026130889
103	0x3e76965d	0.24080797
104	0x3c505db5	0.012717654
105	0xbdd1a164	-0.10235861
106	0x3d92b3dc	0.07163212
107	0x3e561bc9	0.20909037
108	0xbcf968de	-0.030445512
109	0xbd0f87a3	-0.035041463
110	0x3b01f204	0.001982809
111	0xbd3b59b0	-0.04573983
112	0xbdc938c5	-0.09825281
113	0x3c54f8ad	0.012998742
114	0x3dc4a5a4	0.09601906
115	0x3d0b4896	0.03400477
116	0xbd36fcfe	-0.044674866
117	0xbe0be471	-0.13661362
118	0xbe242c38	-0.16032493
119	0x3c967d7f	0.018370388
120	0xbd1a20a3	-0.03762878
121	0xbcd64a4c	-0.026158474
122	0xbd1abde0	-0.037778735
123	0xbcf9449c	-0.030428223
124	0xbdb3cfed	-0.08779893
125	0xbd655385	-0.055987854
126	0x3c59a29b	0.013283397
127	0xbd9dcba5	-0.07704858

action_layer.weight f4 [4, 128]
0	0xbd6401dd	-0.05566584
1	0x3aa30098	0.001243609
2	0x3d5f31f7	0.05449101
3	0x3d6a54f9	0.057209942
4	0x3ea31a15	0.31855837
5	0xbb82e227	-0.0039942446
6	0x3c55bfdb	0.01304623
7	0xbe5dc9ef	-0.21659063
8	0xbc89ee15	-0.01683716
9	0x3d3aa91a	0.045571424
10	0xbc382512	-0.011239307
11	0xbeb8a3d9	-0.36062506
12	0xbb6667f1	-0.0035157169
13	0x3e8563c1	0.2605267
14	0x3bdafc22	0.0066828886
15	0x3ea6d290	0.3258252
16	0xbb879938	-0.004138138
17	0xbdc78b26	-0.09743337
18	0x3c9ef4e3	0.01940388
19	0x3eb286a0	0.34868336
20	0xbcf2108b	-0.029548904
21	0x3e4871e2	0.19574693
22	0xbe3514bb	-0.1768369
23	0x3eb7308d	0.3577923
24	0xbcc045d9	-0.023470806
25	0x3bc1af87	0.005910817
26	0xbe013aeb	-0.12620132
27	0x3bf05e5f	0.0073354687
28	0x3f0ce367	0.5503449
29	0xbc2ab03a	-0.010417992
30	0xbe6f6928	-0.23379958
31	0x3dd36520	0.103220224
32	0xbdcbbfa6	-0.099486634
33	0xbe964f3a	-0.2935732
34	0xbe1d3fa9	-0.15356316
35	0x3dfaa6ea	0.122388676
36	0x3f074e95	0.5285428
37	0xbcde2f4e	-0.027122166
38	0xbd29f909	-0.041497264
39	0xbd37c4c8	-0.0448654
40	0xbb5aa549	-0.0033362678
41	0x3e3f158a	0.1866056
42	0xbea0d58b	-0.3141292
43	0x3cb3ac46	0.021932732
44	0x3da40373	0.080084704
45	0xbdef758a	-0.11692341
46	0xbdb97d14	-0.0905706
47	0x3cad6c35	0.021169761
48	0x3e0fc194	0.14038688
49	0xbd5f2e7d	-0.054487694
50	0x3efa92d3	0.48940143
51	0x3c5e5834	0.013570834
52	0xbc656147	-0.0140002435
53	0xbca7ed7f	-0.02049899
54	0xbe9c8482	-0.30569845
55	0x3dd7aa3a	0.10530515
56	0xbcca4c23	-0.024694508
57	0xbebc765c	-0.3680905
58	0x3ec339a0	0.38129902
59	0xbc94b0af	-0.018150656
60	0xbc7f7a34	-0.0155931
61	0xbea2b52a	-0.31778842
62	0x3e03966d	0.12850352
63	0xbc5473b0	-0.012967035
64	0xbdaa6f81	-0.08322049
65	0xbcec6078	-0.028854594
66	0x3efb6c30	0.49105978
67	0xbe0e958a	-0.13924232
68	0xbddb64df	-0.10712599
69	0xbeb94647	-0.3618643
70	0x3e60784f	0.21920894
71	0xbc7824e7	-0.015145517
72	0xbb863ee5	-0.004096853
73	0xbe0cb1bc	-0.13739675
74	0x3e784671	0.24245621
75	0x3bcefdd8	0.0063168816
76	0x3de52460	0.111885786
77	0x3e1ced7d	0.1532497
78	0xbe4db65b	-0.20089094
79	0xbcbb5dc6	-0.022871863
80	0xbdddad21	-0.10824037
81	0x3c071a79	0.008246058
82	0x3dff7703	0.124738716
83	0x3dd0b18d	0.10190115
84	0x3dd14219	0.10217685
85	0x3ea7185a	0.32635766
86	0xbcf299d6	-0.02961437
87	0xbdbfb445	-0.093605556
88	0xbdaca173	-0.084292315
89	0xbe9c0efb	-0.3048018
90	0xbd65efa2	-0.056136735
91	0x3ed14fce	0.408812
92	0xbeb07310	-0.34462786
93	0x3c6c750d	0.014432204
94	0x3e08bfeb	0.13354461
95	0xbceae41a	-0.02867322
96	0x3eb8e747	0.3611395
97	0x3dc43a06	0.095813796
98	0xbe972876	-0.29523057
99	0x3e97562c	0.2955793
100	0x3ca80b09	0.020513074
101	0x3ced7d62	0.028990451
102	0xbd1283de	-0.03577029
103	0xbe99bc5d	-0.30026522
104	0xbd4e6772	-0.050391622
105	0x3d4eedbc	0.05051969
106	0x3eeb3199	0.45936278
107	0xbe5b8ac3	-0.21439652
108	0x3dea9435	0.114540495
109	0x3c7fb5b6	0.015607288
110	0xbd993f06	-0.07482724
111	0xbbafe7ff	-0.0053682323
112	0x3c363f5a	0.011123503
113	0xbb9d961e	-0.004809155
114	0xbdd38d53	-0.1032969
115	0x3bb2d2a3	0.0054572388
116	0x3e9c87a3	0.30572233
117	0x3d1eb757	0.038749065
118	0xbdb96f26	-0.09054403
119	0xbc39b9f9	-0.011335843
120	0x3d815b8c	0.06316289
121	0x3c4457cc	0.011983823
122	0xbd966c6b	-0.07344898
123	0x3d3f50c2	0.046707876
124	0xbdbfeb32	-0.09371032
125	0xbdb73a2b	-0.089466415
126	0xbcdb2b43	-0.026754027
127	0x3dc666f4	0.096876055
128	0xbcf3cdc3	-0.0297612
129	0x3d0909ae	0.033456497
130	0xbc235b83	-0.009970549
131	0x3ed71b60	0.42013073
132	0x3ea68b01	0.32527927
133	0x3cc39ba7	0.023877932
134	0x3d2e247b	0.04251526
135	0x3d78b7cc	0.060722157
136	0xbcd6b82d	-0.026210869
137	0x3d679ab9	0.05654404
138	0xbc4e6601	-0.012597562
139	0x3c1668dc	0.009180274
140	0xbc09bacc	-0.008406352
141	0xbdc97894	-0.098374516
142	0x3e0b02ee	0.13575336
143	0x3d85c05d	0.06530831
144	0x3af25e00	0.0018491149
145	0xbea8442b	-0.32864508
146	0x3d962b76	0.07332508
147	0x3ee7c894	0.45270216
148	0xbcfdc24d	-0.030976439
149	0xbeac9f42	-0.33715254
150	0x3e89adfc	0.26890552
151	0x3c9c12f9	0.019052016
152	0x3bf00656	0.007324974
153	0x3e594fe7	0.21221887
154	0x3dc844e1	0.097787626
155	0x3d01edd9	0.03172097
156	0x3ec71af7	0.3888776
157	0xbc646d4c	-0.013942074
158	0xbea12f36	-0.31481332
159	0x3c9a4bb6	0.01883493
160	0x3d9a928d	0.075474836
161	0xbe86d322	-0.26332957
162	0x3d61c563	0.055119883
163	0xbcf28a22	-0.029606882
164	0x3e92fbb6	0.28707665
165	0xbd0d96e6	-0.034567736
166	0x3cf9f7ee	0.03051373
167	0xbd031cb3	-0.03200979
168	0x3d40aa49	0.047037397
169	0x3dee258f	0.116282575
170	0xbd4c9e1e	-0.04995548
171	0xbd22fa19	-0.039789293
172	0xbe0f9c81	-0.14024545
173	0x3d9fb501	0.07798196
174	0xbdce715d	-0.10080216
175	0x3da955e6	0.08268337
176	0xbc02c32f	-0.007981106
177	0x3d78fe5b	0.060789447
178	0xbd5328a7	-0.05155244
179	0x3d59ace9	0.053143416
180	0x3db46878	0.08808988
181	0xbd060142	-0.032716043
182	0xbe6d4200	-0.23169708
183	0x3904ebaa	0.00012676293
184	0x3b981763	0.00464146
185	0xbe4f664e	-0.2025387
186	0x3e8ee60a	0.2790988
187	0xbcb0d1ef	-0.02158448
188	0x3d3cf49d	0.04613172
189	0xbd01aeba	-0.031660773
190	0x3d7c1b81	0.061549667
191	0x3dc21ca3	0.09478118
192	0x3ed57e33	0.41697845
193	0x3da96f72	0.0827321
194	0xbcf0bed2	-0.029387865
195	0xbdb4618c	-0.08807668
196	0x3aac3e21	0.0013141074
197	0xbd6b32d8	-0.057421535
198	0xbd23d828	-0.040001065
199	0x3cc23081	0.02370477
200	0x3d5021b0	0.050813377
201	0xbeb52af8	-0.35384345
202	0x3ef20bfe	0.47274774
203	0x3de05258	0.10953206
204	0x3e0659be	0.13120171
205	0x3d99d4d8	0.075113
206	0xbe136a28	-0.14395964
207	0x3d852a8d	0.065022565
208	0xbd2487e2	-0.04016865
209	0x3e0a1973	0.1348627
210	0x3d86fe86	0.06591515
211	0xbd518433	-0.051151466
212	0xbc304ccb	-0.010760496
213	0xbc98f37e	-0.018670794
214	0xbd7a7c8f	-0.061153945
215	0x3a40820f	0.0007343599
216	0x3edba0fb	0.42896256
217	0xbdadc304	-0.08484462
218	0x3d90e33f	0.07074594
219	0x3ed9c205	0.42530838
220	0xbd3cd952	-0.04610569
221	0xbd111c95	-0.03542765
222	0x3bf317bf	0.0074186022
223	0xbe5f807a	-0.21826354
224	0xbe10daf2	-0.14146021
225	0xbcbf2add	-0.023335868
226	0xbe696510	-0.22792459
227	0xbdd0862c	-0.10181841
228	0x3dcd808f	0.10034286
229	0xbd075419	-0.033039186
230	0xbc82ccb8	-0.015966758
231	0xbc8100da	-0.015747476
232	0x3b12d65d	0.0022405603
233	0x3d210c17	0.03931817
234	0x3ebd105d	0.36926547
235	0x3ccaa251	0.024735602
236	0x3d692745	0.056922216
237	0xbdfcfe3c	-0.12353179
238	0x3bbca2bc	0.005756704
239	0x3be2fe61	0.006927297
240	0x3deddfdb	0.11614963
241	0x3e7d4c64	0.24736172
242	0xbe6bdd9e	-0.23033759
243	0xbca79ff3	-0.020462012
244	0x3ed93955	0.42426553
245	0x3db439a1	0.08800054
246	0x3ec871b7	0.39149258
247	0x3dc5460c	0.09632501
248	0xbe256d95	-0.16155083
249	0x3d9f15c5	0.07767824
250	0xbc4c7ec9	-0.0124814
251	0xbcccaed5	-0.02498571
252	0x3e90e661	0.28300765
253	0x3d1749a3	0.03693546
254	0xbe420be4	-0.18949848
255	0x3dbec9b8	0.093158185

action_layer.bias f4 [4]
0	0x3d1fca20	0.03901112
1	0xbe42d6e7	-0.19027291
2	0x3e3bae61	0.18328239
3	0xbe41df01	-0.18932725

value_layer.weight f4 [1, 128]
0	0x3db1ff5f	0.08691286
1	0xbdc9a57d	-0.098460175
2	0xbd213117	-0.039353456
3	0x3d894b16	0.06703775
4	0x3e546330	0.20740962
5	0x3d63cdbd	0.05561613
6	0xbcab8c8c	-0.020941041
7	0xbd0c8e18	-0.0343152
8	0xbc056d93	-0.0081438
9	0x3e2d0f20	0.16900301
10	0x3bce11c9	0.0062887412
11	0x3c9c3f69	0.019073205
12	0x3df07d91	0.117427
13	0x3d045af4	0.032313302
14	0x3ddc6521	0.10761476
15	0xbdd6f75f	-0.10496401
16	0x3dae9be4	0.085258275
17	0xbcd21914	-0.025646724
18	0x3d915bf1	0.070976146
19	0xbd2f6c1b	-0.042827707
20	0x3d9126a3	0.070874475
21	0x3e6f8fee	0.23394749
22	0x3ed831f8	0.42225623
23	0xbe3b9dc9	-0.18321909
24	0x3d001f96	0.031280123
25	0xbdab3e8b	-0.083615385
26	0x3d115f2c	0.035491154
27	0x3df1a4bf	0.11799001
28	0xbe58c6ad	-0.21169539
29	0x3de508dc	0.111833304
30	0xbdb95673	-0.09049692
31	0x3dfca6a0	0.12336469
32	0xbe5a8cd1	-0.2134278
33	0x3c95a709	0.018268125
34	0xbdffdf35	-0.12493745
35	0x3d366514	0.04452999
36	0xbe3f22bd	-0.18665595
37	0x3d81fe09	0.063472815
38	0xbd5d2000	-0.053985596
39	0x3c27a67b	0.010232563
40	0x3d0710c1	0.032974962
41	0x3e0b85e4	0.13625294
42	0x3cd75ac4	0.026288398
43	0x3de7608b	0.11297711
44	0x3ddd3b37	0.1080231
45	0x3d1f1e3c	0.038847193
46	0x3e702793	0.23452596
47	0xbac103b9	-0.0014725841
48	0x3bdaea95	0.0066807964
49	0x3dc76dae	0.097377166
50	0x3c6b7a49	0.014372417
51	0x3dd88b4e	0.10573445
52	0x3cc4891f	0.023991166
53	0x3d708e3f	0.058729406
54	0x3cac6320	0.02104336
55	0x3cfa4e53	0.030554926
56	0xbe909f9c	-0.28246772
57	0xbda67e54	-0.08129564
58	0x3d8fd70a	0.07023437
59	0xbd51884d	-0.051155377
60	0xbe85fcf2	-0.26169544
61	0xbe142a65	-0.14469297
62	0xbb897237	-0.0041945237
63	0x3cf638d6	0.030056398
64	0xbd98a662	-0.0745361
65	0xbc97ce01	-0.018530848
66	0xbd3d4856	-0.046211563
67	0xbe8d08ff	-0.27545926
68	0xbe8980d0	-0.2685609
69	0x3c9c68a4	0.019092865
70	0x3e032604	0.1280747
71	0x3dd4b006	0.10385136
72	0x3e10ee11	0.14153315
73	0xbe25bf5b	-0.16186278
74	0x3e1a5c9b	0.15074389
75	0x3c8a6aa9	0.016896563
76	0x3c24db4f	0.010062053
77	0xbe1813c3	-0.14851288
78	0x3d7bdf26	0.061492108
79	0x3c0b448b	0.008500229
80	0xbeb7d4b6	-0.35904473
81	0x3d5d6290	0.054049075
82	0xbc9c757c	-0.01909899
83	0xbdd795b3	-0.105266
84	0xbd791ba9	-0.060817394
85	0xbdc3b2ed	-0.09555612
86	0x3cb106b9	0.02160965
87	0xbee12835	-0.43975988
88	0x3e044bb4	0.12919503
89	0x3f54073a	0.82823527
90	0xbd5c6064	-0.053802863
91	0xbe0683f1	-0.13136269
92	0xbdc7e88c	-0.09761152
93	0x3de3cdbe	0.111232266
94	0x3d9b5990	0.07585442
95	0x3e2813a4	0.16413742
96	0x3d87ca78	0.06630415
97	0xbdab409e	-0.08361934
98	0x3dce8ce8	0.100854695
99	0xbd97a7bb	-0.07405039
100	0x3d39d512	0.045369215
101	0x3cc9d756	0.024638813
102	0xbd699cbf	-0.05703425
103	0x3bc5fcbe	0.006042092
104	0x3c9d668c	0.019213937
105	0x3d21d5f1	0.03951067
106	0xbe3dce34	-0.18535691
107	0x3e0f2c03	0.13981633
108	0x3ddc6b39	0.107626386
109	0xbe52be6e	-0.20580456
110	0x3dc3208f	0.095276944
111	0x3e06ea8d	0.13175412
112	0xbd24fe28	-0.040281445
113	0x3d4b8d56	0.049695335
114	0xbe1710f3	-0.1475256
115	0x3de9a497	0.11408346
116	0x3c9c8dff	0.019110678
117	0x3d386333	0.04501648
118	0xbe09f008	-0.13470471
119	0xbb09d46f	-0.0021031161
120	0x3db91d41	0.09038783
121	0xbd209ebe	-0.03921389
122	0xbe0e5311	-0.13898875
123	0xbe1e594f	-0.15463756
124	0x3e81f7af	0.2538428
125	0xbdb657e5	-0.08903483
126	0x3d7c1e9f	0.06155264
127	0x3db5beb3	0.088742636
