HW2/preTrained/LunarLander-v2_0.006481718720511973.pth (torch, 75599 bytes, 7 tensors)

shared_layer1.weight f4 [128, 8]
0	0x3d6bb977	0.05754992
1	0x3eb27207	0.3485262
2	0x3ea57454	0.32315314
3	0xbebb362f	-0.36564776
4	0xbdb1c925	-0.086809434
5	0xbd855d3f	-0.06511926
6	0x3eab9ee4	0.3351966
7	0xbe081472	-0.1328905
8	0xbe047973	-0.12936954
9	0x3dbc0fed	0.09182725
10	0x3e427e28	0.18993437
11	0xbdb5c259	-0.088749595
12	0x3d20ac0d	0.03922658
13	0x3e4d3eca	0.20043483
14	0xbe25037b	-0.16114609
15	0x3c94460f	0.018099813
16	0xbc083e7d	-0.00831568
17	0xbe3e6567	-0.1859337
18	0x3e17893c	0.14798445
19	0x3e8f0548	0.27933717
20	0x3e649f11	0.22326304
21	0x3b53c965	0.0032316085
22	0xbebc26ec	-0.36748445
23	0x3d835824	0.06413296
24	0x3eaa6a87	0.332844
25	0x3d9f00a2	0.077637926
26	0x3ea3b34b	0.31972727
27	0xbecf5e59	-0.4050167
28	0xbf0d1635	-0.5511201
29	0xbdd23124	-0.10263279
30	0x3e8826f9	0.26592234
31	0xbe8f9fbf	-0.28051564
32	0x3e323975	0.1740473
33	0xbe64ae9d	-0.22332235
34	0xbd9cdc75	-0.07659236
35	0xbf26074e	-0.64854896
36	0x3d22f58b	0.03978495
37	0xbd1999d0	-0.037500203
38	0x3d7a9b28	0.061183125
39	0xbebd6c29	-0.36996582
40	0xbe9e1730	-0.30877066
41	0xbd8d478f	-0.06898414
42	0xbe2364c2	-0.15956405
43	0xbe9462c9	-0.28981617
44	0xbe2f0b43	-0.1709414
45	0x3e0ee1b4	0.13953286
46	0xbe7a7255	-0.24457677
47	0xbe48746c	-0.19575661
48	0xbd8ed9bf	-0.069751255
49	0x3dd6dbe5	0.1049116
50	0xbec074f2	-0.37589222
51	0xbe8197e0	-0.25311184
52	0x3ecd253b	0.40067467
53	0x3f0cac5e	0.5495051
54	0xbf1ee1ad	-0.62063104
55	0xbda03a67	-0.07823639
56	0x3c6644a4	0.014054451
57	0xbe166cf3	-0.14689998
58	0x3e16d669	0.14730228
59	0xbdfef32d	-0.12448726
60	0xbe2c826a	-0.16846624
61	0xbec36175	-0.3816029
62	0xbbf4b1af	-0.0074674706
63	0xbe1724ce	-0.14760134
64	0x3de5caf6	0.11220352
65	0xbd54e430	-0.05197543
66	0xbd912507	-0.070871405
67	0x3ed643ca	0.41848594
68	0xbe21279b	-0.15737765
69	0x3e7162f8	0.2357291
70	0xbeccaebc	-0.39977062
71	0xbe0cc80e	-0.1374819
72	0x3dfa9856	0.12236087
73	0xbea7bf21	-0.32763007
74	0xbd807577	-0.06272405
75	0xbe3daacb	-0.18522184
76	0x3e07cc1b	0.13261454
77	0x3ea792d3	0.32729205
78	0x3e9c7c2d	0.3056349
79	0x3e5e9be9	0.21739163
80	0x3d5fc4c4	0.05463101
81	0xbdb9bfe3	-0.090698026
82	0xbf1402c7	-0.5781674
83	0x3e9b449f	0.3032579
84	0x3f153f06	0.5829929
85	0x3e4c80f6	0.1997107
86	0x3dd9d01a	0.10635395
87	0x3eae5399	0.34048155
88	0x3e8e4b35	0.27791753
89	0xbdcb998e	-0.099413976
90	0xbe9a8c4f	-0.30185172
91	0x3eb2bce5	0.3490974
92	0xbe97e2c3	-0.29665193
93	0x3b07848a	0.0020678365
94	0xbe922057	-0.28540298
95	0xbdeff2a6	-0.117162034
96	0xbea71952	-0.32636505
97	0x3ebab011	0.36462453
98	0xbe6f73f7	-0.23384081
99	0x3e8e87c3	0.27837953
100	0x3e8bd92a	0.2731412
101	0x3eda4be4	0.42636025
102	0xbe837b80	-0.2568016
103	0x3d24011b	0.040040117
104	0x3e8d03ed	0.27542058
105	0xbd6b1fc9	-0.05740336
106	0x3ef0cb97	0.47030327
107	0xbf0e21bf	-0.5552024
108	0xbe0378fb	-0.12839119
109	0xbe914bf1	-0.2837825
110	0xbe7d0841	-0.2471018
111	0x3e42c7ab	0.1902148
112	0x3ef6d9c8	0.4821303
113	0x3dfa8057	0.1223151
114	0x3f0cf93f	0.5506782
115	0x3de050ac	0.10952887
116	0xbe90ae68	-0.2825806
117	0x3e9ee65c	0.31035125
118	0x3b9704e4	0.0046087373
119	0xbe1cf3e1	-0.15327407
120	0xbe5b1495	-0.2139457
121	0x3e6cd905	0.23129661
122	0xbcd96c29	-0.026540833
123	0x3f12380f	0.5711679
124	0x3ebcfc85	0.36911407
125	0x3ec05d47	0.37571165
126	0xbecf1998	-0.40449214
127	0xbcaa882c	-0.020816885
128	0xbd897dca	-0.067134455
129	0xbec6e09b	-0.38843235
130	0x3d843058	0.06454533
131	0xbe6211c3	-0.22077088
132	0xbe7f291f	-0.2491803
133	0xbd1bab70	-0.038005292
134	0x3ebe8325	0.3720943
135	0xbe8175c8	-0.25285172
136	0x3cc9fcca	0.024656672
137	0xbe998620	-0.29985142
138	0xbdd322cc	-0.10309371
139	0xbe0f152e	-0.13972923
140	0x3f1137eb	0.5672595
141	0xbdc0efb2	-0.09420718
142	0xbd5de47d	-0.05417298
143	0xbebb304e	-0.3656029
144	0x3e821d91	0.25413182
145	0xbe2e788d	-0.17038174
146	0x3e9dad6f	0.30796382
147	0xbdf96e32	-0.12179221
148	0xbe068740	-0.13137531
149	0x3e2ddfff	0.16979979
150	0x3d0c4590	0.034246027
151	0x3d81f64e	0.06345807
152	0xbe3ef40b	-0.18647783
153	0xbdb5c744	-0.088758975
154	0xbe17ae4d	-0.14812584
155	0x3df24db2	0.118312255
156	0xbdbd70e5	-0.092500485
157	0xbde4d48f	-0.11173355
158	0x3ef1311a	0.47107774
159	0x3e839493	0.2569929
160	0x3f09ec05	0.5387576
161	0x3d880d03	0.06643107
162	0x3e12c259	0.1433195
163	0xbc86a052	-0.016433869
164	0xbe864e65	-0.26231685
165	0x3ec8939a	0.3917511
166	0x3ed62784	0.41827023
167	0xbdf8b137	-0.12143176
168	0xbeef2578	-0.46708274
169	0xbe292f77	-0.16522013
170	0x3ebad905	0.36493698
171	0x3eb18846	0.3467428
172	0xbe081694	-0.13289863
173	0x3da9877b	0.08277794
174	0xbeb1c963	-0.34723958
175	0x3e9ba615	0.30400148
176	0x3d619483	0.055073272
177	0x3db8d1c9	0.09024388
178	0x3ea4577b	0.32097992
179	0x3d8e3cc8	0.06945187
180	0xbe8bb3cd	-0.27285615
181	0xbeb7d3db	-0.3590382
182	0xbe67893d	-0.22610946
183	0x3d56504d	0.052322675
184	0xbdfda5ec	-0.12385163
185	0xbd4a76ce	-0.049429707
186	0x3c505d17	0.012717507
187	0x3d7a5f42	0.061126
188	0xbe26e2bc	-0.1629743
189	0xbd1680d4	-0.036743954
190	0xbe7dcb88	-0.24784672
191	0xbe270c3d	-0.16313262
192	0xbe4f5027	-0.2024542
193	0xbedd4dbd	-0.43223372
194	0xbe6655dd	-0.22493692
195	0x3f16a002	0.588379
196	0x3e1b8eeb	0.15191238
197	0xbd3da6aa	-0.04630152
198	0xbd3cd0f3	-0.046097707
199	0x3ea5aa07	0.32356283
200	0xbb8dbb61	-0.004325316
201	0xbea9b9ea	-0.33149654
202	0xbe6be2ea	-0.2303578
203	0xbe83774b	-0.2567695
204	0x3e1ac3c0	0.15113735
205	0x3e74a95d	0.23892732
206	0x3e08db29	0.13364853
207	0xbdde0d4f	-0.10842382
208	0xbcebb2a8	-0.028771713
209	0xbc8f443e	-0.017488595
210	0x39afb34f	0.00033512196
211	0xbe056b56	-0.13029227
212	0x3d8b56af	0.06803643
213	0x3e66514e	0.22491953
214	0xbda5d141	-0.08096553
215	0xbe6a009a	-0.22851792
216	0x3babfe24	0.005248802
217	0xbd06e485	-0.032932777
218	0x3df78926	0.12086706
219	0xbe739d46	-0.23790464
220	0xbf0fcb17	-0.56169266
221	0xbe063a60	-0.13108206
222	0x3e5496fc	0.20760721
223	0xbe35b13e	-0.17743394
224	0xbebca386	-0.36843508
225	0xbe80ed15	-0.2518088
226	0x3e60cd11	0.21953227
227	0x3d88b2be	0.06674717
228	0x3ecaa2e1	0.39577392
229	0xbdf765a8	-0.12079936
230	0x3ecdf9dc	0.4022969
231	0x3e08dcd6	0.13365492
232	0xbe84c2eb	-0.2592996
233	0x3e573565	0.21016462
234	0xbe92e81b	-0.28692707
235	0xbe24dd6e	-0.16100094
236	0x3f2a3fc9	0.6650358
237	0x3e9a82fc	0.30178058
238	0xbd3a7ab8	-0.04552719
239	0xbe91f473	-0.28506812
240	0x3e29b7ee	0.1657407
241	0x3eab8214	0.3349768
242	0xbf1476a5	-0.5799354
243	0xbc2bbdfe	-0.010482309
244	0x3e88840a	0.26663238
245	0x3ee2eb2b	0.44320044
246	0x3e87263a	0.26396352
247	0xbe640fa0	-0.22271585
248	0x3ac8002b	0.0015258839
249	0xbe44a4d0	-0.19203496
250	0xbe488df8	-0.19585407
251	0x3e1f1ecf	0.15539096
252	0x3f05f618	0.52328634
253	0xbe96e9c6	-0.2947523
254	0x3e5ad8dd	0.2137179
255	0x3d9adafd	0.075613

shared_layer1.bias f4 [128]
0	0xbe183d27	-0.14867078
1	0x3d004750	0.03131801
2	0xbe92d440	-0.2867756
3	0x3e0c542f	0.13703988
4	0x3e8dfd30	0.2773223
5	0x3da74a86	0.08168511
6	0x3c10f866	0.008848285
7	0xbe239fbc	-0.15978903
8	0xbe831299	-0.25600126
9	0x3cd74030	0.026275724
10	0x3e685ad4	0.22690898
11	0xbe87d686	-0.26530856
12	0xbd8acb37	-0.067770414
13	0x3e5b91d3	0.21442346
14	0x3e560119	0.20898856
15	0x3c689910	0.014196649
16	0xbde46d52	-0.11153664
17	0xbde02ca5	-0.10946015
18	0xb9e00257	-0.00042726353
19	0xbe35e855	-0.17764409
20	0x3dd033e1	0.10166145
21	0xbe380c94	-0.17973548
22	0x3d7c7eb8	0.061644286
23	0xbeae1ab2	-0.34004742
24	0x3e33b241	0.17548467
25	0x3e42dbbb	0.19029133
26	0xbe9315e8	-0.2872765
27	0x3e0fc463	0.1403976
28	0xbe6390b8	-0.22223175
29	0xbe0c6210	-0.13709283
30	0xbe930952	-0.28718048
31	0x3d2c5ca4	0.042080536
32	0x3e317a44	0.17331797
33	0x3e6816a2	0.22664884
34	0xbbac5cac	-0.005260071
35	0xbda69b3c	-0.08135077
36	0x3e2fc30d	0.1716425
37	0x3e3695ae	0.17830536
38	0x3d314d70	0.04328674
39	0xbcecb91c	-0.02889686
40	0x3e9c7f18	0.30565715
41	0x3c437b88	0.011931308
42	0xbd69511c	-0.056962118
43	0xbea4c205	-0.32179275
44	0xbdd972ac	-0.10617575
45	0x3d199803	0.037498485
46	0xbd9a27cc	-0.07527122
47	0xbe944447	-0.2895834
48	0x3d5877f5	0.052848775
49	0x3ea90998	0.33015132
50	0xbe6ac3c1	-0.22926237
51	0xbdaadcd5	-0.083429016
52	0x3e12c659	0.14333476
53	0xbec430f5	-0.383186
54	0x3cd90e13	0.026495969
55	0x3d9a317e	0.07528971
56	0x3ea0182f	0.3126845
57	0xbc162057	-0.009162984
58	0x3e6d9c44	0.23204142
59	0x3c1c8ba0	0.009554774
60	0x3e6f5b42	0.23374656
61	0x3e4a5f6e	0.19762966
62	0xbdcc78a0	-0.09983945
63	0x3e95d5a5	0.2926456
64	0xbec624a6	-0.38699836
65	0x3e20c301	0.15699388
66	0x3df5729c	0.11984751
67	0xbe51b0bb	-0.20477574
68	0x3d45fd09	0.048337016
69	0x3de2e6f3	0.11079206
70	0xbec233c0	-0.37930107
71	0x3d854555	0.06507365
72	0x3c6d3cc2	0.014479818
73	0x3d18b724	0.03728403
74	0xbecb0fff	-0.39660642
75	0xbe8d236e	-0.27566093
76	0x3d4c15b5	0.04982539
77	0x3d6893de	0.056781642
78	0xbd839f46	-0.06426863
79	0xbdf24f0b	-0.118314825
80	0xbeb03e3e	-0.34422487
81	0x3e907c4f	0.2821984
82	0x3d18aa2c	0.037271664
83	0x3dd80db8	0.10549492
84	0x3c9b4c55	0.018957296
85	0xbcfd4eb0	-0.03092131
86	0x3e02b2d0	0.12763524
87	0xbceafc7d	-0.028684849
88	0x3d39398f	0.045220908
89	0x3de569b2	0.112018004
90	0x3d72f738	0.059317797
91	0xbb1e44ce	-0.0024149898
92	0xbec397c2	-0.3820172
93	0x3e090907	0.1338235
94	0xbd650ab5	-0.055918414
95	0x3d9239f6	0.071399614
96	0x3e000b85	0.12504394
97	0xbdb41257	-0.087925605
98	0xbdc316e3	-0.0952585
99	0x3e14da17	0.1453632
100	0x3d8b058f	0.067881696
101	0xbd1718f9	-0.03688905
102	0x3e5b8d5a	0.2144064
103	0x3e9f0551	0.31058744
104	0xbe578181	-0.21045496
105	0xbd3a6399	-0.04550514
106	0x3e97e801	0.29669192
107	0x3ac9ffd0	0.0015411321
108	0xbe63ae2e	-0.22234413
109	0xbd4596e5	-0.048239607
110	0xbc4e6404	-0.012597088
111	0xbe010a74	-0.12601644
112	0xbda9c064	-0.08288649
113	0x3e52c9e1	0.20584823
114	0x3dbdcd85	0.09267715
115	0xbd4248f5	-0.04743286
116	0x3ea4a467	0.3215668
117	0xbe63ecb3	-0.22258262
118	0x3dd94b45	0.1061006
119	0xbe65c003	-0.22436528
120	0x3e84c43a	0.2593096
121	0x3db9c316	0.09070413
122	0x3e99242b	0.29910406
123	0xbd09e9d9	-0.03367028
124	0x3dbbf547	0.09177642
125	0x3d81abb2	0.063315764
126	0xbd5a1d05	-0.05325033
127	0xbe1d8813	-0.1538394

shared_layer2.weight f4 [128, 128]
0	0xbbb70bd0	-0.005586125
1	0xbdeb4443	-0.11487629
2	0x3d288256	0.041139923
3	0xbde507e4	-0.11183146
4	0xbc5ef0a2	-0.013607176
5	0x3bd62c60	0.0065360516
6	0xbd6f3a68	-0.05840531
7	0xbdc7bb4a	-0.097525194
8	0xbd170595	-0.036870558
9	0xbd86b7e3	-0.06578042
10	0xbd0df180	-0.03465414
11	0x3d8cd9ab	0.06877454
12	0xbdb2be55	-0.08727709
13	0xbceb9b6d	-0.028760636
14	0x3c7ae311	0.015312926
15	0xbd02bab3	-0.03191633
16	0xbdcf7491	-0.10129655
17	0xbda8fc02	-0.08251192
18	0xbd8d33f2	-0.068946734
19	0xbd2744b2	-0.040836997
20	0xbd344a11	-0.044015948
21	0xbcb6a19c	-0.022293858
22	0xbd3741f3	-0.04474063
23	0x3db22f2f	0.08700406
24	0x3d6b2cbe	0.057415716
25	0xbdd6e8f1	-0.10493649
26	0xbda5db6a	-0.080984905
27	0xbcbcfddc	-0.023070268
28	0xbd230244	-0.039797083
29	0x3c14ac48	0.009074278
30	0xbd4fcde0	-0.050733447
31	0x3db13a9f	0.08653759
32	0x3b922a80	0.004460633
33	0x3cf4696c	0.029835425
34	0xbd92e491	-0.07172502
35	0x3d71848a	0.05896429
36	0x3cd55bdf	0.026044784
37	0xbdcee53c	-0.10102317
38	0xbd338817	-0.043830957
39	0xbde04221	-0.10950113
40	0xbd795806	-0.06087496
41	0xbcef5344	-0.029214509
42	0x3b91b280	0.0044463277
43	0x3d748ce6	0.059704684
44	0x3d1d1673	0.038351487
45	0x3d161faa	0.03665129
46	0xba1058ca	-0.00055063947
47	0xbd57a24d	-0.052645016
48	0x3d14dea2	0.03634513
49	0xbb71915e	-0.0036860327
50	0x3d51cc0e	0.051219992
51	0x3bb67278	0.005567845
52	0xbd22c9be	-0.039743178
53	0xbdaa838d	-0.083258726
54	0xbd975d95	-0.07390896
55	0xbd0afd86	-0.033933185
56	0x3ce1ada3	0.027548617
57	0xbcd7f76f	-0.026363103
58	0xbd8fb381	-0.070166595
59	0x3d9b5551	0.07584632
60	0xbda22e15	-0.07918946
61	0xbd8441f6	-0.064578936
62	0x3c91dbb4	0.017804958
63	0xbdc1230a	-0.09430511
64	0xbd0ff610	-0.035146773
65	0x3d31b5ee	0.043386392
66	0xbdf83fc0	-0.12121534
67	0x3c85824c	0.016297482
68	0x3da867af	0.08222901
69	0x3cb5fb28	0.022214487
70	0x3d6dbfca	0.058044232
71	0xbdb2cb56	-0.087301895
72	0xba458f09	-0.00075362675
73	0xbd9af0fc	-0.07565495
74	0xbd0545d6	-0.032537304
75	0xbd025ce6	-0.031826876
76	0x3c1c1bae	0.009528084
77	0x3d2a1692	0.04152543
78	0xbd7c8848	-0.061653405
79	0xbdd4de51	-0.10393966
80	0x3bf935f0	0.007605307
81	0xbc803d2a	-0.015654165
82	0xbcdb91b5	-0.026802877
83	0x3d4b7cd6	0.0496796
84	0x3c6d114c	0.014469456
85	0x3d716c02	0.058940895
86	0xbd4641a4	-0.048402444
87	0x3d39fb1e	0.0454055
88	0x3d1ea42a	0.038730778
89	0xbdf62bcc	-0.12020072
90	0xbc83d83d	-0.016094321
91	0xbd8d8b72	-0.06911363
92	0xbd7699c9	-0.060205255
93	0xbd7f2b7a	-0.06229732
94	0x3d43b802	0.047782905
95	0xbd4d3332	-0.05009765
96	0xbd295ea6	-0.04135003
97	0x3dacaa95	0.084309734
98	0xbd83d8f4	-0.06437865
99	0xbde2bcbe	-0.11071156
100	0xbd61e3ca	-0.055148877
101	0xbded2218	-0.115787685
102	0xbde09810	-0.109665036
103	0x3cd873d5	0.02642242
104	0xbd4d950a	-0.050190963
105	0xbd141f0b	-0.036162417
106	0x3d3a243b	0.04544471
107	0xbdf05306	-0.117345855
108	0xbd45f657	-0.04833063
109	0x3ccb63d9	0.024827885
110	0xbdafeb48	-0.08589798
111	0x3d4874fa	0.048939683
112	0x3d122902	0.03568364
113	0xbbf33ea4	-0.007423239
114	0xbd9f54af	-0.07779824
115	0xbd6ebfd0	-0.058288395
116	0xbda9bf49	-0.08288438
117	0x3ce55fac	0.027999721
118	0x3d9178c5	0.07103113
119	0xbda87660	-0.08225703
120	0x3d3c3f32	0.045958705
121	0xbccce519	-0.025011586
122	0xbdd2f979	-0.103014894
123	0xbdab4d72	-0.08364381
124	0x3db19699	0.08671302
125	0x3d7ee33a	0.06222842
126	0x3d32b049	0.04362515
127	0xbc805c31	-0.01566896
128	0x3e2e5443	0.17024331
129	0x3d1a316f	0.0376448
130	0x3d49e398	0.049289316
131	0x3d0a2edc	0.033736095
132	0xbceb7ed5	-0.028747002
133	0xbd6c7816	-0.05773171
134	0xbdb8add0	-0.09017527
135	0x3dcf134f	0.10111105
136	0xbd42ef05	-0.047591228
137	0x3e046456	0.129289
138	0x3df9a902	0.12190439
139	0x3bc00100	0.005859494
140	0xbe090fbf	-0.13384913
141	0xbde8dc4d	-0.11370144
142	0x3d6415bc	0.05568479
143	0x3bd2d4e0	0.006434068
144	0x3dbff98f	0.093737714
145	0x3d8b247d	0.06794069
146	0x3da84049	0.082153864
147	0x3e8b574e	0.27215046
148	0x3e0288e6	0.12747535
149	0x3e58ded8	0.21178758
150	0x3dcec98e	0.10097037
151	0x3dabdac1	0.08391333
152	0x3e61ef00	0.22063828
153	0x3c0e899f	0.008699804
154	0x3c3156cb	0.010823916
155	0x3c2128ab	0.009836356
156	0x3e87e4df	0.26541802
157	0xbe577b6c	-0.21043175
158	0x3d292150	0.041291535
159	0x3e22fe5d	0.15917344
160	0x3d0442ab	0.032290142
161	0x3e1b866a	0.15187994
162	0x3ea96d41	0.33091167
163	0x3d2810eb	0.04103176
164	0x3e34353d	0.17598434
165	0x3d240aa0	0.040049195
166	0x3e66cffe	0.2254028
167	0x3cdb4e70	0.0267708
168	0x3d23930a	0.03993515
169	0x3dac36cc	0.08408889
170	0x3d74f203	0.059801113
171	0x3e2693ce	0.1626732
172	0x3dc724b4	0.097237974
173	0x3e4aa5c9	0.19789805
174	0xbd613aab	-0.05498759
175	0x3e324cdd	0.17412134
176	0xbc94e6e4	-0.018176503
177	0x3c6e0773	0.014528143
178	0x3e3e93a9	0.18611015
179	0x3c57a15f	0.013161032
180	0x3e02f76a	0.12789693
181	0xbb1f4d07	-0.0024307386
182	0xbdc39cdb	-0.09551402
183	0x3e786186	0.24255952
184	0xbd83499b	-0.064105235
185	0x3e498e4c	0.19683188
186	0xbe1dffe4	-0.15429646
187	0xbdbb345a	-0.09140845
188	0x3e19294d	0.14957161
189	0xbe6013ab	-0.21882503
190	0x3de98a09	0.11403281
191	0xbe4d472c	-0.20046681
192	0x3d4dde7b	0.050261002
193	0xbd20d8b4	-0.039269164
194	0xbd698ded	-0.057020117
195	0x3e6f2308	0.23353207
196	0x3e61e2ca	0.2205917
197	0x3e503b9e	0.20335242
198	0x3da61fb3	0.08111515
199	0x3e0f36a7	0.13985692
200	0x3d371fb8	0.044707984
201	0xbdc31403	-0.09525301
202	0x3c699855	0.01425751
203	0x3d059b5e	0.032618873
204	0x3de4cfc7	0.11172443
205	0x3d8f6841	0.07002307
206	0x3e0d1ecc	0.1378128
207	0x3d1b3fd6	0.037902676
208	0x3d6a23ba	0.057162978
209	0x3e7e2060	0.24817038
210	0x3c93cb5d	0.018041307
211	0xbd972273	-0.073796175
212	0x3e567d13	0.2094615
213	0x3d2d4fc9	0.042312417
214	0x3dd6695f	0.10469317
215	0x3e7d20a8	0.24719489
216	0xbc62b66f	-0.013837441
217	0x3dcc0339	0.09961552
218	0xbcf9baef	-0.030484645
219	0xbd6fb7ec	-0.05852501
220	0x3cc8e266	0.024522018
221	0x3e1de98a	0.1542112
222	0xbe2038f8	-0.15646732
223	0xbd8ed6e5	-0.06974582
224	0xbd0308df	-0.031990882
225	0x3d52f412	0.051502295
226	0x3e88549e	0.26627058
227	0xbe0cbaf1	-0.13743187
228	0xbdc29095	-0.09500233
229	0xbb77950e	-0.0037778053
230	0xbc8b5f3c	-0.017013185
231	0x3e20a794	0.15688926
232	0x3dc56313	0.096380375
233	0xbe82baaf	-0.25533053
234	0x3cc672bf	0.024224637
235	0xbd43910d	-0.047745753
236	0x3e302f17	0.17205463
237	0x3d22e24e	0.039766602
238	0xbe0f2a96	-0.13981089
239	0x3c967b90	0.018369466
240	0x3e75ec6f	0.24015974
241	0x3dd04691	0.101697095
242	0x3e4daef9	0.20086278
243	0xbde69ad8	-0.11260003
244	0x3d9c2b3c	0.07625434
245	0x3e8011c9	0.2501357
246	0x3e3eeb06	0.18644342
247	0x3e13db0b	0.14439027
248	0xbbdcd83f	-0.0067396457
249	0xbe02bea8	-0.12768042
250	0xbdc64346	-0.096808
251	0xbe4c157b	-0.19930069
252	0xbe8d3d50	-0.2758584
253	0xbe8a53a6	-0.27016944
254	0x3e0cf45e	0.13765094
255	0x3e0e8c3a	0.1392068

shared_layer2.bias f4 [128]
0	0xbbbc1b9f	-0.0057405974
1	0x3d55766e	0.052114896
2	0x3cb743d6	0.022371214
3	0xbdc52fdf	-0.09628271
4	0xbdaecac1	-0.08534766
5	0xbdb9b09a	-0.09066887
6	0x3e5ff79d	0.218718
7	0x3dbe57ae	0.09294067
8	0xbdfef53e	-0.1244912
9	0xbde319b2	-0.11088885
10	0x3c12104a	0.008915016
11	0xbcb95d45	-0.022627482
12	0x3ce0388a	0.02737071
13	0xbd85682a	-0.06514008
14	0xbd13844f	-0.03601485
15	0xbd25f160	-0.040513396
16	0x3c82213e	0.015884992
17	0x3b2afb0a	0.0026089572
18	0xbd8f78b4	-0.07005444
19	0xbd6243e1	-0.055240516
20	0xbd0af4e7	-0.033924963
21	0x3e1bf8f8	0.15231693
22	0xbd84d2ce	-0.0648552
23	0xbd643f53	-0.055724453
24	0xbbc6de43	-0.006068976
25	0xbe0588c1	-0.13040449
26	0xbd846dda	-0.06466265
27	0xbd93acc7	-0.07210689
28	0xbc32975e	-0.010900347
29	0x3e222607	0.15834819
30	0xbb42c6ac	-0.0029720468
31	0xbd724bf6	-0.059154473
32	0xbd71221a	-0.058870412
33	0xbca6561e	-0.020304736
34	0xbdaa05c1	-0.08301879
35	0xbd86bba5	-0.06578759
36	0xbda06590	-0.078318715
37	0x3d86b27b	0.06577011
38	0x3cd98108	0.026550785
39	0xbde9ec79	-0.11422057
40	0x3c47db5c	0.012198295
41	0xbdacd113	-0.08438315
42	0x3cface43	0.030615931
43	0xbde52b0d	-0.11189852
44	0x3d89e5eb	0.067333065
45	0x3d9de551	0.07709754
46	0xbc31a002	-0.0108413715
47	0xbd5bdc03	-0.053676616
48	0xbcf141d2	-0.02945033
49	0x3dedf688	0.11619288
50	0xbc9dd938	-0.019268617
51	0xbc4cd2a5	-0.012501393
52	0xbd09cb2d	-0.03364103
53	0xbdd5f36c	-0.1044682
54	0x3d1e4f5f	0.038649913
55	0x3d9ac52f	0.07557141
56	0xbda515e5	-0.08060817
57	0xbdb98111	-0.090578206
58	0x3db860f9	0.09002871
59	0x3dbf4811	0.093399175
60	0xbd4c604f	-0.049896535
61	0xbd402814	-0.04691322
62	0x3bb84d86	0.005624476
63	0xbdb250fc	-0.08706853
64	0xbceebc7c	-0.02914261
65	0x3b480ae7	0.0030524076
66	0xbb98fdca	-0.004668926
67	0xbdf2ffc0	-0.11865187
68	0xbc3477ad	-0.011014861
69	0xbd7723e4	-0.060336962
70	0xbdc0e22a	-0.09418137
71	0xbdf18224	-0.117924005
72	0xbd97a595	-0.07404629
73	0xbdc16ea6	-0.09444933
74	0x3de37249	0.111057825
75	0x3dcadff2	0.099059954
76	0x3d925b2e	0.071462974
77	0x3c23a45c	0.009987917
78	0x398294f4	0.0002490651
79	0xbca06d18	-0.01958327
80	0xbc287de7	-0.010283924
81	0xbe069e6f	-0.13146375
82	0xbda53a8f	-0.0806781
83	0x3c0ab77b	0.008466597
84	0xbd82f9f3	-0.0639533
85	0xbd5b11b0	-0.053483665
86	0x3e333125	0.17499216
87	0x3da36590	0.07978356
88	0x3d242fc7	0.040084627
89	0xbdd572a7	-0.10422259
90	0xbbb33c60	-0.0054698437
91	0xbd8d54f4	-0.06900969
92	0xbd0efe81	-0.034910683
93	0xbd0a6714	-0.03378971
94	0x3cc02159	0.023453401
95	0xbc2b5586	-0.010457402
96	0x3d8e8b9e	0.069602236
97	0xbdd6363f	-0.10459565
98	0xbdf94b17	-0.121725254
99	0xbd39b9ea	-0.045343317
100	0x3cfb3cab	0.030668577
101	0x3dc5ec1e	0.096641764
102	0xbcdb1f2d	-0.026748264
103	0xbdc92ef6	-0.0982341
104	0x3b2348a4	0.0024915123
105	0x3bb7d4a6	0.0056100665
106	0xbda07b46	-0.078360125
107	0xbdde3804	-0.10850528
108	0xbdadf394	-0.084937245
109	0x3e46625c	0.19373459
110	0x3d83f6c9	0.06443555
111	0xbd8c6266	-0.068547055
112	0xbe009f6f	-0.12560819
113	0xbdf62490	-0.120186925
114	0x3e18644c	0.1488201
115	0xbda12b51	-0.0786959
116	0x3d441d5f	0.047879573
117	0x3dae01a2	0.08496405
118	0xbc93ff9b	-0.018066218
119	0x3dd9cfa5	0.10635308
120	0xbd2e30d5	-0.04252704
121	0xbde1a3d6	-0.11017577
122	0x3e1af3dc	0.15132087
123	0x3d03963f	0.032125708
124	0x3cb910e3	0.02259106
125	0xbd14f0eb	-0.03636257
126	0xbd084ae6	-0.033274554
127	0x3becba54	0.0072243605

action_layer.weight f4 [4, 128]
0	0xbca7915c	-0.020455055
1	0x3ea08ba8	0.3135655
2	0x3e7017fa	0.23446646
3	0x3d22f8f9	0.03978822
4	0xbbb961c8	-0.0056574084
5	0x3d65f325	0.056140084
6	0xbead36fc	-0.33831012
7	0xbea40da3	-0.32041654
8	0xbc2cfa70	-0.010557756
9	0xbd3e26cb	-0.046423715
10	0xbcafa945	-0.021443019
11	0xbd471cf4	-0.048611596
12	0x3e192211	0.14954402
13	0xbd0e44e3	-0.034733664
14	0x3d3fde22	0.0468427
15	0x3c765a44	0.015036169
16	0xbca64ad3	-0.02029935
17	0x3e369948	0.1783191
18	0xbcfced13	-0.030874765
19	0x3ddcf268	0.10788423
20	0x3dd783b9	0.10523171
21	0x3e4ec8f1	0.2019384
22	0x3cb5c987	0.022190822
23	0x3b2a1660	0.0025953278
24	0xbb4fe2ec	-0.003172095
25	0xbb9f03dc	-0.004852755
26	0x3b8e5a70	0.004344277
27	0x3d86e850	0.06587279
28	0x3ca57a01	0.020199778
29	0x3e09d2a5	0.13459261
30	0xbc22778c	-0.0099161975
31	0xbb4f2ad1	-0.0031611214
32	0xbb92974d	-0.004473603
33	0x3dce2eeb	0.10067543
34	0x3cdaaccc	0.026693724
35	0x3d06258a	0.032750644
36	0x3d72954d	0.059224416
37	0x3d53f40a	0.051746406
38	0xbe4e80bd	-0.20166297
39	0xbc055ebf	-0.008140265
40	0xbd1e3c4c	-0.038631722
41	0x3d935f7b	0.07195946
42	0x3d117a8a	0.035517253
43	0x3d5acca8	0.05341783
44	0x3e861ce2	0.2619391
45	0x3e7254b9	0.23665132
46	0xba466408	-0.00075680064
47	0x3cb7463b	0.022372356
48	0x3e857658	0.26066852
49	0x3ec67cf5	0.3876721
50	0xbc71250b	-0.014718304
51	0x3dcb8985	0.09938339
52	0x3e3579d8	0.17722261
53	0x3dc95a97	0.09831732
54	0xbcb6df5f	-0.022323309
55	0x3e864450	0.26223993
56	0x3cb687ea	0.022281606
57	0xbcd2e00d	-0.025741601
58	0x3e605dc5	0.2191077
59	0x3e4c05b4	0.1992405
60	0x3dc3b569	0.095560856
61	0xbb990b1d	-0.0046705143
62	0x3db9b350	0.09067404
63	0x3c1df22d	0.009640259
64	0x3ea9399b	0.33051762
65	0x3d96731c	0.07346174
66	0x3d987eb9	0.074460454
67	0xbd1f8140	-0.03894162
68	0x3b988254	0.004654208
69	0x3d42dce3	0.047573935
70	0xbd97ad9c	-0.0740616
71	0xbd2dc8d3	-0.04242785
72	0xbdf3c328	-0.119024575
73	0x3ba174e7	0.004927266
74	0x3e0ddb39	0.13853158
75	0xbe82daf1	-0.25557664
76	0xbe027fd7	-0.1274408
77	0x3ce74c56	0.028234642
78	0xbd3fd7f5	-0.046836812
79	0xbd90148d	-0.0703517
80	0x3d04fd22	0.03246797
81	0x3d2b3252	0.041796036
82	0x3deb2fae	0.114837036
83	0x3cae3227	0.021264149
84	0x3e4fba8d	0.20286007
85	0xbc1438c4	-0.009046737
86	0x3eb55789	0.35418347
87	0x3e7c59a4	0.2464357
88	0xbd3a32f3	-0.045458745
89	0x3d26f71e	0.040763013
90	0xbca77af7	-0.020444376
91	0xbc2c6cac	-0.010523956
92	0x3d21126d	0.039324213
93	0xbd3aed34	-0.04563637
94	0xbc8f07b6	-0.017459732
95	0x3c695d93	0.014243501
96	0x3ea5d5ff	0.3238983
97	0x3d529098	0.051407427
98	0xbc53823a	-0.012909466
99	0xbcb41f1d	-0.021987492
100	0x3e908d52	0.2823282
101	0x3ec30670	0.3809085
102	0x3cf8ce3d	0.03037178
103	0x3b1603b6	0.0022890395
104	0x3d23746e	0.039905958
105	0xbc2d128a	-0.010563502
106	0xbd65d027	-0.056106713
107	0xbb634050	-0.0034675784
108	0xbb98d5b1	-0.004664146
109	0xbe39cea0	-0.18145227
110	0xbd8bae74	-0.06820384
111	0xbd3ac08d	-0.045593787
112	0x3d0b2cd7	0.03397831
113	0x3d13e9b2	0.03611154
114	0x3d8a9132	0.06765975
115	0x3d88f5df	0.06687521
116	0x3e3275f4	0.17427808
117	0xbd98e337	-0.07465213
118	0x3de3dcb7	0.111260824
119	0x3e9168c0	0.2840023
120	0xbc03de13	-0.008048552
121	0xbd35d133	-0.04438896
122	0xbe94b95d	-0.2904767
123	0x3d65edc2	0.056134947
124	0xbc0328f9	-0.008005374
125	0xbcae693c	-0.021290414
126	0x3e5be033	0.21472244
127	0x39a6a9ca	0.0003178849
128	0x3d9cd37d	0.07657526
129	0xbddd7503	-0.10813334
130	0xbea4d2a0	-0.32191944
131	0xbc7b4647	-0.01533658
132	0x3d10ea36	0.03537961
133	0x3c10a52e	0.008828444
134	0x3e0a2cf7	0.13493715
135	0xbc3d3437	-0.0115480935
136	0x3cae0f3f	0.021247504
137	0x3dcc3224	0.09970501
138	0x3cc3d615	0.023905793
139	0xbdd6868b	-0.10474881
140	0x3e57088f	0.20999359
141	0xbca536b9	-0.020167695
142	0x3d90cedf	0.070707075
143	0xbcb2b0c4	-0.021812804
144	0xbd05321d	-0.032518495
145	0xbe8e320c	-0.27772558
146	0xbd412b7b	-0.047160607
147	0xbd6d5d6b	-0.05795042
148	0x3d94141d	0.07230399
149	0x3e87c390	0.2651639
150	0x3d38313c	0.04496883
151	0xbc2e68a8	-0.010645069
152	0x3b6526bd	0.0034965717
153	0xbd8c9ba3	-0.06865623
154	0x3ca237fc	0.019802086
155	0xbc5553c7	-0.013020462
156	0x3e232d8f	0.15935348
157	0x3e74761c	0.2387318
158	0xbd96a2ec	-0.07355294
159	0xbd926190	-0.07147515
160	0xbd5b2319	-0.05350027
161	0x3d92c56f	0.07166564
162	0xbcd91052	-0.02649704
163	0xbc1926ca	-0.009347627
164	0xbc243406	-0.010022169
165	0xbed63d7e	-0.4184379
166	0xbdcaf47e	-0.099099144
167	0x3d26bd5e	0.04070794
168	0xbdf74ebb	-0.120755635
169	0x3b5f275b	0.0034050557
170	0x3db4e8cd	0.08833466
171	0x3debfec0	0.11523199
172	0xbdef4b80	-0.11684322
173	0x3d5c2bf1	0.053752843
174	0xbe8fcbd8	-0.28085208
175	0xbd657a1e	-0.056024663
176	0xbe41b8f4	-0.1891821
177	0xbde21657	-0.11039417
178	0xbd8493d5	-0.06473509
179	0xbd1e72b6	-0.038683616
180	0xbde48d0a	-0.111597136
181	0xbd073fcc	-0.033019826
182	0xbc559906	-0.013036972
183	0xbd32a646	-0.043615602
184	0xbc7a2093	-0.015266555
185	0xbd44bd13	-0.048031878
186	0xbe1aa33a	-0.15101328
187	0x3e087bda	0.13328496
188	0x3d99047d	0.07471559
189	0x3cc4010d	0.023926282
190	0xbe0d5dbe	-0.13805291
191	0x3d72e5dd	0.059301246
192	0xbe341d81	-0.1758938
193	0x3c9cac49	0.01912512
194	0x3d8ce88b	0.068802916
195	0x3df463f4	0.11933127
196	0xbb8f9a74	-0.004382426
197	0xbc06f7f6	-0.008237829
198	0xbd4a77a8	-0.04943052
199	0x3d45890c	0.0482264
200	0xbe72ce1f	-0.23711441
201	0xbba51526	-0.0050379215
202	0x3e7fb646	0.24971876
203	0x3e3153c5	0.17317112
204	0xbdc3b550	-0.09556067
205	0xbd08768e	-0.033316188
206	0x3b863360	0.00409548
207	0x3c9d6ac5	0.01921595
208	0x3d0e2e19	0.03471193
209	0x3d852de5	0.06502894
210	0xbd91badd	-0.071157195
211	0xbcfd9982	-0.030956987
212	0x3c81ff76	0.015868884
213	0xbcbc72d2	-0.02300397
214	0xbe41fbd7	-0.18943726
215	0xbe62b410	-0.22139001
216	0x3d35f58d	0.04442363
217	0xbdcba1b4	-0.09942952
218	0xbda0094b	-0.078142725
219	0xbd09c1d7	-0.033632126
220	0xbd2914c3	-0.041279566
221	0x3da14e25	0.07876233
222	0xbe126864	-0.14297634
223	0xbe97268d	-0.295216
224	0xbda7c5c6	-0.08192019
225	0x3db7be47	0.089718394
226	0xbd2fe868	-0.04294625
227	0xbcebed50	-0.028799683
228	0x3e4073b4	0.18794137
229	0xbda3a390	-0.079901814
230	0x3c8ac642	0.01694024
231	0x3d9699a7	0.073535256
232	0x3c634283	0.013870838
233	0xbcdcefc7	-0.026969803
234	0xbe8bbf90	-0.27294588
235	0xbdb6faf4	-0.08934584
236	0x3dfd8bdb	0.12380191
237	0x3d841bcb	0.064506136
238	0xbdefae31	-0.11703146
239	0xbc005659	-0.007833087
240	0x3d1299ca	0.035791196
241	0xbe03c0c5	-0.12866504
242	0x3e97215b	0.29517636
243	0x3dfdada5	0.12386636
244	0x3e2b2f57	0.16717277
245	0xbdda6112	-0.10663046
246	0x3ccee4e1	0.025255622
247	0xbe35254f	-0.17690013
248	0xbd04102e	-0.032241993
249	0x3d02f03a	0.03196738
250	0x3cc75cbe	0.024336215
251	0x3c815941	0.01578963
252	0xbd0dbb2d	-0.034602333
253	0x3d256ff2	0.040389962
254	0xbe16e762	-0.14736703
255	0x3c3c6989	0.011499771

action_layer.bias f4 [4]
0	0xbdd08878	-0.10182279
1	0x3d878e58	0.06618947
2	0x3e3e5c12	0.1858981
3	0xbe2059b6	-0.15659222

value_layer.weight f4 [1, 128]
0	0xbd427fcf	-0.04748517
1	0x3e0e34c6	0.13887319
2	0x3e316517	0.17323719
3	0xbdafa290	-0.08575928
4	0xbc330974	-0.010927547
5	0xbdda4767	-0.1065815
6	0x3dcda89a	0.10041924
7	0xbd739e1f	-0.059476968
8	0xbd05ccb8	-0.03266594
9	0xbd69d835	-0.057090957
10	0x3de49b35	0.11162416
11	0x3c88032a	0.016603071
12	0x3d06155d	0.032735217
13	0x3d056612	0.032568045
14	0xbcc5eaa0	-0.02415973
15	0xbd364e08	-0.04450801
16	0xbe10f389	-0.14155401
17	0xbe7b6ec6	-0.24553975
18	0x3d659de9	0.056058798
19	0xbe01365e	-0.12618396
20	0x3c24df3c	0.010062989
21	0xbd184101	-0.037171368
22	0xbac1ca24	-0.0014784974
23	0x3acb6640	0.0015518144
24	0xbbfd5727	-0.0077313366
25	0x3dc13cc1	0.09435416
26	0xbd484f98	-0.04890403
27	0x3cb8fe77	0.022582276
28	0x3ec2f0d2	0.38074356
29	0xbd80dc68	-0.06292039
30	0x3ca90025	0.020629952
31	0x3daf17bf	0.08549451
32	0x3d90b48d	0.07065687
33	0xbe92fcfc	-0.28708637
34	0xbdc6f563	-0.097147726
35	0x3cb4b686	0.02205969
36	0x3cffdc29	0.03123291
37	0xbdbc8c28	-0.0920642
38	0x3e2c564d	0.16829796
39	0xbbd8de55	-0.006618301
40	0xbb9949ef	-0.004678003
41	0x3d199baa	0.03750197
42	0x3a94e22a	0.0011358906
43	0x3df2d7ea	0.118575886
44	0x3db8937f	0.09012508
45	0xbe42cba1	-0.19022991
46	0xbeb190f3	-0.346809
47	0xbd2f4263	-0.04278792
48	0x3e67f59c	0.22652286
49	0xbe0dac7b	-0.13835327
50	0x3d9d48eb	0.076799236
51	0x3cf3ea11	0.029774697
52	0xbe127054	-0.14300662
53	0xbdd71870	-0.10502708
54	0xbcc7b14c	-0.024376534
55	0xbd856f8c	-0.065154165
56	0xbb9b0f8e	-0.004732079
57	0x3e047d62	0.12938455
58	0x3d14bf58	0.036315292
59	0x3c7b9dd1	0.015357451
60	0x3c307ef5	0.010772456
61	0xbc95a944	-0.018269189
62	0x3c6e5dc7	0.014548725
63	0xbcff46ac	-0.031161629
64	0x3d64c949	0.055856023
65	0xbb2db413	-0.0026505038
66	0x3db220cf	0.08697664
67	0xbda867a4	-0.08222893
68	0x3c5674a2	0.013089331
69	0x3d095a76	0.033533536
70	0xbdd7fc69	-0.1054619
71	0xbcec0e34	-0.028815366
72	0x3ee11d5e	0.43967718
73	0xbe09cedd	-0.13457818
74	0x3d8674fd	0.065652825
75	0xbde30ba8	-0.11086208
76	0xbd06b4d2	-0.032887287
77	0xbdb5c7e7	-0.08876019
78	0xbd55d7c5	-0.052207727
79	0x3db8161d	0.08988593
80	0xbc38d0e4	-0.011280272
81	0x3de3c010	0.111206174
82	0xbdef1fc0	-0.11675978
83	0x3d9d11b7	0.076693945
84	0xbe269973	-0.16269474
85	0xbdabc988	-0.083880484
86	0xbdfc78d2	-0.12327732
87	0x3e332d03	0.1749764
88	0xbdf978e0	-0.12181258
89	0x3d0a71e1	0.03380001
90	0xbdf79b3c	-0.120901555
91	0xbca55d0e	-0.020185973
92	0xbd623f9a	-0.055236436
93	0x3d94103c	0.07229659
94	0xbc4c68b9	-0.01247614
95	0xbd9a910c	-0.07547197
96	0x3e7fb349	0.24970736
97	0xbe5edcbb	-0.2176389
98	0xbd40598b	-0.046960395
99	0xbd36e3d8	-0.044650882
100	0xbe148272	-0.14502886
101	0x3d33ff62	0.043944724
102	0x3dd25219	0.10269565
103	0x3d62e468	0.055393606
104	0xbdc3dc96	-0.09563558
105	0x3d97b263	0.074070714
106	0x3df0d9f3	0.117603205
107	0x3d06b8ff	0.03289127
108	0x3c1af5da	0.00945803
109	0xbeeeace1	-0.4661627
110	0x3e18ad86	0.14909944
111	0x3c16f6ff	0.009214162
112	0xbb5f1fda	-0.0034046085
113	0xbe3bb815	-0.1833194
114	0x3e4438ae	0.19162247
115	0xbc60b9c2	-0.013716163
116	0xbe2a9bc4	-0.16660982
117	0xbeca1d55	-0.39475504
118	0xbdd350f3	-0.10318174
119	0xbe1180e0	-0.14209318
120	0x3cffbc73	0.03121779
121	0x3c0a6b45	0.008448427
122	0x3ea810d9	0.32825354
123	0xbc0d0a3c	-0.008608397
124	0x3bd51476	0.0065026833
125	0xbdb66f8b	-0.08907994
126	0x3e2c7030	0.16839671
127	0xbde5cf38	-0.112211645
