HW2/preTrained/LunarLander-v2_0.0047766511732135.pth (torch, 75599 bytes, 7 tensors)

shared_layer1.weight f4 [128, 8]
0	0x3e71b4d8	0.23604143
1	0x3dce6481	0.10077763
2	0x3f2e846c	0.6817081
3	0xbedefe71	-0.43553498
4	0xbe939efd	-0.28832236
5	0x3e663309	0.22480406
6	0xbe118a3b	-0.14212887
7	0x3dc5f0b0	0.09665048
8	0xbe97694c	-0.29572523
9	0xbeaaac8c	-0.33334768
10	0x3c28f710	0.010312811
11	0xbcb18cae	-0.021673527
12	0xbd2294aa	-0.03969256
13	0xbccc5551	-0.024943026
14	0xbdc860f7	-0.097841196
15	0x3b6baf1e	0.0035962532
16	0x3d9376e5	0.07200412
17	0xbbb193f9	-0.005419251
18	0x3eb55e4c	0.35423505
19	0x3f1508a4	0.5821631
20	0xbeabad94	-0.33530867
21	0x3d8b391b	0.067980014
22	0xbdba030f	-0.09082615
23	0x3d66059f	0.056157704
24	0x3e84009f	0.25781724
25	0xbf36a9ff	-0.71353143
26	0x3d249200	0.0401783
27	0x3db91de3	0.090389036
28	0x3e1edab4	0.15513116
29	0xbe877661	-0.26457503
30	0xbdd6d742	-0.10490276
31	0x3d9b4044	0.07580617
32	0xbe6cc62f	-0.23122476
33	0x3e7d3f78	0.24731243
34	0xbee06b08	-0.43831658
35	0xbf0a16de	-0.5394114
36	0x3e2b98ed	0.16757555
37	0xbc86432b	-0.01638945
38	0x3bddccbc	0.006768791
39	0x3ec2c8d1	0.38043836
40	0x3e0e5ef9	0.13903417
41	0x3e06afd1	0.13153006
42	0x3f174642	0.5909158
43	0xbf2fa7ad	-0.6861523
44	0xbecaf104	-0.39637005
45	0x3eb5c1cf	0.35499427
46	0x3d936aa3	0.07198074
47	0xbe592b05	-0.21207817
48	0xbc447666	-0.011991119
49	0xbf087b85	-0.53313476
50	0x3e923213	0.2855383
51	0x3f0667d1	0.5250216
52	0xbe9e73ce	-0.30947727
53	0xbe1417c2	-0.14462188
54	0xbe8be746	-0.27324885
55	0x3ef30a12	0.4746862
56	0xbb1f982d	-0.0024352178
57	0xbeb29f76	-0.34887284
58	0x3db32303	0.08746912
59	0x3ed05a8e	0.40694088
60	0xbd0ebc51	-0.03484756
61	0x3e0d3ce9	0.13792767
62	0xbe70aeb2	-0.23504141
63	0xbe624157	-0.22095238
64	0xbebab8fd	-0.3646926
65	0x3e54ab50	0.20768476
66	0x3dcba81c	0.09944174
67	0x3f96bfbc	1.1777263
68	0x3dc7c11c	0.097536296
69	0xbe33575c	-0.17513794
70	0xbeab7ac5	-0.33492103
71	0xbeac59cf	-0.3366227
72	0x3e51fbab	0.2050616
73	0xbe355b81	-0.17710687
74	0xbef62d8f	-0.48081633
75	0xbdd0b132	-0.10190047
76	0xbd0d4df6	-0.034498177
77	0x3eb56697	0.35429832
78	0x3e8eb33f	0.2787113
79	0x3ddc6ae0	0.10762572
80	0xbe8c7e5f	-0.27440163
81	0xbe1842d8	-0.14869249
82	0xbe97a192	-0.29615456
83	0x3ec9f964	0.39448082
84	0x3d4ac904	0.04950811
85	0x3d8f5c17	0.069999866
86	0x3d7c949e	0.06166517
87	0x3dc16491	0.0944301
88	0x3bdbf54d	0.0067125917
89	0xbe9b8ec4	-0.3038236
90	0xbe2075c3	-0.15669923
91	0xbc9c2073	-0.019058442
92	0xbd179a92	-0.037012644
93	0xbbbf6835	-0.00584128
94	0xbe83ac37	-0.25717327
95	0x3d533467	0.051563647
96	0x3d6aa37c	0.057284817
97	0x3ddce121	0.107851274
98	0x3f42e525	0.76130897
99	0xbf148a51	-0.58023554
100	0x3eebb365	0.46035305
101	0x3f0c9669	0.5491701
102	0xbe64d033	-0.22345047
103	0xbd96b096	-0.073579
104	0x3ea3fbc6	0.32028025
105	0xbeef9250	-0.46791315
106	0x3f608f26	0.8771843
107	0x3e26a341	0.16273214
108	0xbf0f0b5b	-0.558767
109	0xbdf6ab0f	-0.120443456
110	0xba1e93bc	-0.0006049236
111	0x3d2000db	0.039063316
112	0xbcb3705a	-0.02190416
113	0x3e3a82de	0.18213984
114	0x3f15337b	0.5828168
115	0xbeab18aa	-0.33417255
116	0x3e379884	0.17929274
117	0x3e0056ee	0.12533161
118	0xbf1fb044	-0.62378335
119	0xbdc901f7	-0.09814828
120	0x3d45ce2e	0.04829233
121	0x3db94138	0.090456426
122	0x3ed8a896	0.4231612
123	0xbf163e27	-0.58688587
124	0xbec2e305	-0.38063827
125	0xbe2bbf02	-0.16772082
126	0xbe47b4ab	-0.19502513
127	0x3ebb342d	0.36563244
128	0x3ec91d61	0.39280227
129	0xbf1c69e3	-0.6109907
130	0x3d704d37	0.058667388
131	0x3f22926c	0.6350467
132	0xbe19d546	-0.15022764
133	0xbe28a156	-0.16467795
134	0xbe6479e4	-0.22312123
135	0x3e0c0f26	0.13677654
136	0xbdbee8cf	-0.093217485
137	0xbe160c56	-0.14653143
138	0xbef125b4	-0.47099078
139	0xbef95095	-0.48694292
140	0x3ebaf250	0.36512995
141	0xbc8815ee	-0.01661202
142	0xbe3d976c	-0.18514794
143	0xbdb4c47c	-0.08826539
144	0x3e87e241	0.26539806
145	0xbe295ef3	-0.16540127
146	0xbefe39b0	-0.49653387
147	0xbd84e414	-0.06488815
148	0x3e96ce2e	0.29454178
149	0x3d80c81b	0.06288167
150	0xbdfd6464	-0.123726636
151	0xbe4efd19	-0.20213737
152	0xbc291a8d	-0.010321272
153	0x3dc447e4	0.095840245
154	0xbf247028	-0.64233637
155	0xbea8edce	-0.3299393
156	0xbf125edb	-0.5717599
157	0xbecc44d2	-0.39896256
158	0x3df34301	0.11878014
159	0x3e570aeb	0.21000259
160	0xbdeaec9a	-0.114709094
161	0x3e06a6aa	0.13149515
162	0xbee30fcc	-0.4434799
163	0xbf16b996	-0.5887693
164	0x3eae0df9	0.33995035
165	0xbe57f282	-0.21088603
166	0x3e13bc34	0.14427263
167	0xbdf22440	-0.118233204
168	0xbd2045f3	-0.03912921
169	0xbd3412e6	-0.043963335
170	0x3ea4b4c8	0.32169175
171	0x3ea2fcb8	0.31833434
172	0xbdb9ed8b	-0.09078511
173	0xbda69ea8	-0.0813573
174	0xbe1d0ec6	-0.15337667
175	0x3be02f00	0.0068415403
176	0xbe321b68	-0.17393267
177	0x3dcfbf5c	0.10143921
178	0xbf6e0ed8	-0.929914
179	0x3ccfb87b	0.025356522
180	0xbf20e597	-0.62850326
181	0xbf0ac4c4	-0.5420649
182	0x3e1f1bdd	0.15537973
183	0x3e189532	0.14900663
184	0xbe23cd6a	-0.15996328
185	0xbd50e955	-0.051003773
186	0xbf3c51d8	-0.73562384
187	0x3ec50610	0.38481188
188	0x3ecfad80	0.40562057
189	0x3bb8329e	0.0056212684
190	0xbcd4fad1	-0.025998505
191	0xbc9ffcbb	-0.019529691
192	0xbe7d4c86	-0.24736223
193	0xbc94ab66	-0.018148135
194	0x3f13f3da	0.5779396
195	0xbe83dee1	-0.2575598
196	0xbf023a59	-0.5087028
197	0x3d9647c6	0.073379084
198	0x3e7ea679	0.24868192
199	0x3ddf03a8	0.10889369
200	0xba47e6a2	-0.00076256145
201	0xbe7a4e13	-0.24443845
202	0xbd0abae3	-0.033869635
203	0xbd91e813	-0.07124343
204	0x3db05e5c	0.086117476
205	0x3d97ffd1	0.0742184
206	0xbd279865	-0.04091682
207	0xbe29fb5e	-0.16599795
208	0xbe352e3d	-0.1769342
209	0xbdb81d30	-0.08989942
210	0x3f6500e8	0.8945451
211	0x3e137f65	0.14404066
212	0x3eae53ca	0.340483
213	0x3cdf4573	0.027254796
214	0xbf07b93e	-0.5301703
215	0xbea36440	-0.31912422
216	0xba9d2abc	-0.0011990885
217	0x3e21f29e	0.15815207
218	0xbb33f202	-0.002745748
219	0xbf0893c8	-0.53350496
220	0x3e90e68d	0.28300896
221	0xbd707765	-0.058707613
222	0x3dd0fed9	0.10204858
223	0xbdbf5c2f	-0.093437545
224	0xbdeb4fe7	-0.114898495
225	0x3e74aec8	0.23894799
226	0x3e42f7dd	0.19039865
227	0xbf0906cb	-0.5352599
228	0x3e9e2403	0.3088685
229	0x3d8a2165	0.06744651
230	0xbe5cb08f	-0.21551727
231	0x3e5ea8ad	0.21744032
232	0xbcc5a28f	-0.024125366
233	0x3ec817e9	0.39080742
234	0x3e84afcc	0.25915372
235	0x3fa6ec52	1.3040869
236	0xbdace8c6	-0.084428355
237	0x3c7b6d0f	0.015345826
238	0xbc347616	-0.011014482
239	0xbe212ff3	-0.15740947
240	0x3dcbd414	0.0995256
241	0xbd06ebae	-0.032939605
242	0x3f034b89	0.5128713
243	0xbeb8f10c	-0.36121404
244	0x3eb92f84	0.36169064
245	0x3f0d5107	0.5520176
246	0xbee3ad23	-0.4446803
247	0x3d3ed05b	0.046585422
248	0xbd44905c	-0.047989234
249	0xbe8b1105	-0.27161422
250	0x3e884d3e	0.2662143
251	0x3e5ee363	0.21766429
252	0x3d69817e	0.05700826
253	0xbbfa5f77	-0.007640775
254	0xbbd3c122	-0.006462232
255	0x3cdda4a1	0.02705604

shared_layer1.bias f4 [128]
0	0x3e4fbf18	0.2028774
1	0xbe5add21	-0.21373416
2	0x3e1bddde	0.15221354
3	0xbe3c4c4c	-0.1838848
4	0x3d2a35dd	0.041555274
5	0x3eacb544	0.33732045
6	0xbe7d0ac3	-0.24711137
7	0xbddcbf71	-0.10778702
8	0xbe1abc17	-0.15110813
9	0xbe12d0f0	-0.14337516
10	0xbe8197f3	-0.2531124
11	0x3e0f2a00	0.13980865
12	0xbe599b6d	-0.21250696
13	0x3e15dc1b	0.14634745
14	0x3e4bc874	0.19900686
15	0xbaffdc4e	-0.0019520612
16	0x3d831145	0.06399778
17	0x3ecd76bf	0.4012966
18	0xbd2ec685	-0.04266979
19	0xbe481a8a	-0.19541374
20	0x3e59fd3c	0.21288007
21	0xbec8ebf2	-0.39242512
22	0xbc90c5f8	-0.017672524
23	0x3db4f839	0.08836407
24	0xbea0d1ef	-0.31410167
25	0xbef68fb4	-0.48156512
26	0x3dab25b6	0.08356802
27	0x3e9c33dc	0.30508316
28	0x3b73c9ec	0.0037199212
29	0xbeb9f686	-0.36320895
30	0xbd88f387	-0.06687074
31	0xbd9bd592	-0.07609095
32	0xbe8d0895	-0.2754561
33	0x3db29b18	0.08720988
34	0xbd8b6ec3	-0.068082355
35	0x3e97b057	0.29626724
36	0xbd51fa88	-0.051264316
37	0x3e0f6d3f	0.14006518
38	0x3e1ac2fb	0.15113442
39	0x3e9bd2fa	0.304344
40	0x3dd78002	0.105224624
41	0xbecd7195	-0.4012572
42	0xbdecdd7b	-0.115656815
43	0xbeda5b90	-0.42647982
44	0x3e8da3d5	0.27664056
45	0x3e4992b4	0.19684869
46	0x3e26a243	0.16272835
47	0xbe13b0e6	-0.1442295
48	0xbe4f97d0	-0.20272756
49	0xbe02f9a8	-0.12790549
50	0xbdc42cf1	-0.095788844
51	0xbec1556a	-0.37760478
52	0xbe83e70e	-0.25762218
53	0x3dc81ec4	0.09771493
54	0x3eb37f9a	0.3505829
55	0xbd059cda	-0.03262029
56	0x3df3c87c	0.11903474
57	0xbecb9c5b	-0.39767727
58	0x3e67533e	0.22590348
59	0x3ddeb785	0.10874847
60	0x3e935577	0.28776142
61	0xbe9ff8ab	-0.31244406
62	0xbef1c16f	-0.4721789
63	0xbe1c3196	-0.1525329
64	0xbdbc9a82	-0.092091575
65	0x3e50f354	0.20405322
66	0xbe146f4d	-0.14495583
67	0x3d9f3854	0.077744156
68	0xbe587eb4	-0.21142083
69	0xbc8ca16d	-0.017166818
70	0x3dc770ec	0.09738335
71	0x3e0977c6	0.13424596
72	0xbe6ffc58	-0.23436105
73	0x3eb5edf1	0.35533097
74	0x3e83e367	0.25759432
75	0xbe290572	-0.16505983
76	0x3d7cb8ad	0.061699558
77	0xbe1502ef	-0.145519
78	0x3e02a428	0.12757933
79	0x3e84559d	0.25846568
80	0x3e400e27	0.18755399
81	0xbde0a6fa	-0.10969348
82	0x3eb4d183	0.35316095
83	0xbe53b188	-0.20673192
84	0xbe955ba9	-0.29171494
85	0xbed4beb1	-0.41551736
86	0x3d370fd4	0.04469283
87	0xbe972ee4	-0.29527962
88	0x3a3d5be8	0.0007223473
89	0xbe7cf547	-0.24702941
90	0xbd09632c	-0.033541843
91	0x3e13fa97	0.14451061
92	0x3e902840	0.28155708
93	0x3e1680d7	0.14697586
94	0x3e3681b9	0.17822923
95	0x3e0f7c0a	0.14012161
96	0xbed2d4fe	-0.41178125
97	0xbe2119ed	-0.15732546
98	0x3e59ddf8	0.2127608
99	0xbed73e84	-0.42039883
100	0xbe550147	-0.20801269
101	0xbeab2d20	-0.33432865
102	0xbed1fbef	-0.41012523
103	0x3d7d2f22	0.061812527
104	0xbed9a58b	-0.42509112
105	0x3d1dcdd4	0.03852637
106	0xbe120849	-0.14260973
107	0x3e16a140	0.1470995
108	0xbe6de4ff	-0.23231886
109	0xbe8a2d51	-0.269877
110	0x3e065ada	0.13120595
111	0xbe3a5047	-0.18194686
112	0x3d1dab6f	0.03849357
113	0xbd11c0e3	-0.03558434
114	0x3e4c4bab	0.1995074
115	0xbeab6249	-0.33473423
116	0xbe7a176b	-0.24422996
117	0x3e9079d3	0.28217945
118	0x3e44003f	0.19140719
119	0xbe89e38e	-0.26931423
120	0x3d1de577	0.038548913
121	0x3d9e5138	0.07730335
122	0x3e488490	0.19581819
123	0xbe403529	-0.18770279
124	0xbe52b700	-0.20577621
125	0xbe8afe49	-0.2714713
126	0xbef47a93	-0.47749767
127	0xbd8a6373	-0.0675725

shared_layer2.weight f4 [128, 128]
0	0x3db0f7b5	0.08640996
1	0x3cd9b486	0.026575338
2	0x3cb55f26	0.022140097
3	0x3d94a98d	0.07258902
4	0x3e14ef22	0.14544347
5	0x3dd1dbf3	0.1024703
6	0xbe04332e	-0.12910149
7	0x3cdb54eb	0.02677389
8	0xbda334fb	-0.079690896
9	0x3e3b680b	0.18301408
10	0xbc6e886a	-0.014558891
11	0xbdb5d928	-0.0887931
12	0x3edcdc1c	0.4313668
13	0xbe3f4404	-0.1867829
14	0x3dd12e0e	0.10213862
15	0x3d936e1a	0.071987346
16	0xbe312fec	-0.17303437
17	0x3e43c3b1	0.19117619
18	0xbda08849	-0.07838494
19	0x3e90e3ee	0.28298897
20	0x3e07414b	0.13208501
21	0xbd900163	-0.070315145
22	0x3edb42d0	0.4282441
23	0xbe2e1467	-0.1699997
24	0xbe864072	-0.26221043
25	0x3d1e8db4	0.038709357
26	0x3d526761	0.05136812
27	0x3e27e852	0.16397217
28	0x3d8b24c7	0.06794124
29	0xbecc7d25	-0.39939228
30	0x3e5be952	0.21475723
31	0xbad94b90	-0.0016578306
32	0xbed5e02e	-0.41772598
33	0xbd6f2c7c	-0.058392033
34	0x3e227db9	0.15868272
35	0x3df24ac0	0.11830664
36	0x3cb4bdbd	0.02206313
37	0xbe343b8e	-0.17600843
38	0x3e11e1cc	0.14246291
39	0x3bfa154d	0.007631934
40	0xbebd6371	-0.3698993
41	0xbd1c9dc8	-0.03823641
42	0xba7deae8	-0.0009686188
43	0xbbf3af52	-0.0074366713
44	0x3be42204	0.006962063
45	0xbd694229	-0.05694786
46	0xbf1d8a01	-0.615387
47	0xbf02b1c9	-0.5105253
48	0xbd91b02e	-0.07113682
49	0xbe7edbff	-0.2488861
50	0x3de7ec28	0.1132434
51	0x3c80dd39	0.015730487
52	0xbf087d58	-0.5331626
53	0xbe77fba1	-0.24217083
54	0xbe911326	-0.28334922
55	0xbe5f532c	-0.21809071
56	0xbdd9fdf0	-0.10644138
57	0xbd4e4ae1	-0.05036438
58	0xbe9902eb	-0.2988504
59	0xbe292433	-0.16517715
60	0x3e10b350	0.14130902
61	0x3da2f02f	0.07955968
62	0xbe56794b	-0.20944707
63	0xbeb8a950	-0.36066675
64	0x3e838144	0.2568456
65	0xbd938406	-0.07202916
66	0xbe6eae03	-0.23308568
67	0x3e1b43a2	0.15162519
68	0xbeaedf0a	-0.3415454
69	0xbe289a37	-0.16465078
70	0xbe17dd62	-0.14830545
71	0xbcb8f343	-0.022576934
72	0xbe6bed42	-0.23039725
73	0x3dd692c3	0.10477211
74	0xbe546dae	-0.20744964
75	0x3e00060d	0.12502308
76	0x3df61752	0.12016167
77	0xbe7a0eba	-0.2441968
78	0xbeab2912	-0.33429772
79	0xbeebc465	-0.46048275
80	0xbd929dc6	-0.07158999
81	0xbda8a38d	-0.0823432
82	0x3de7fead	0.113278724
83	0xbeb78024	-0.3583995
84	0xbdd6dad6	-0.104909584
85	0xbd9b8204	-0.07593158
86	0x3d562095	0.052277166
87	0xbcca40e3	-0.024689144
88	0xbd006b2f	-0.03135222
89	0xbe9b2c55	-0.3030726
90	0xbe9a7fdc	-0.30175674
91	0xbeae6a01	-0.3406525
92	0xbd9c24f8	-0.07624239
93	0x3df98776	0.1218404
94	0xbe5ac30f	-0.21363471
95	0x3ce916f7	0.028453333
96	0xbd30b0d7	-0.043137398
97	0x3d876567	0.06611138
98	0x3e0bee9e	0.13665244
99	0x3d5e571a	0.054282285
100	0xbe0ac1cb	-0.13550489
101	0xbd004ae6	-0.03132143
102	0xbd953b79	-0.07286734
103	0x3e4b5814	0.19857818
104	0x3d92cc32	0.071678534
105	0x3e5a95ad	0.2134616
106	0xbd0181c7	-0.031617906
107	0x3c91bb02	0.017789368
108	0x3c656a24	0.014002357
109	0xbd4b252f	-0.049596008
110	0x3e386708	0.18008053
111	0xbe52523d	-0.20539184
112	0xbde95d3d	-0.11394737
113	0x3ecdb849	0.4017966
114	0x3dc7e4ee	0.09760462
115	0xbe0222a3	-0.12708525
116	0xbe0d5b9f	-0.13804482
117	0xbc334800	-0.010942459
118	0xbe92bcbf	-0.28659627
119	0x3d10e59c	0.035375223
120	0x3e5d30c9	0.21600641
121	0x3da2600f	0.07928478
122	0xbda7d629	-0.08195145
123	0xbea50785	-0.322323
124	0xbea16be2	-0.3152762
125	0xbea98a34	-0.33113253
126	0xbd92b62a	-0.07163651
127	0xbdc427cf	-0.095779054
128	0x3db3764c	0.08762798
129	0x3cc85092	0.024452481
130	0xbe1026b2	-0.14077261
131	0x3de34e92	0.110989705
132	0x3e58c1e2	0.2116771
133	0x3e18a52f	0.14906763
134	0xbd71b866	-0.059013747
135	0x3d922855	0.07136599
136	0xbe1219f2	-0.1426771
137	0x3eb19b9f	0.34689042
138	0x3d8b20c1	0.06793357
139	0x3c0f255c	0.0087369345
140	0x3f085039	0.5324741
141	0xbe99f7a1	-0.30071738
142	0x3dcdb075	0.10043422
143	0x3e4f3174	0.20233709
144	0xbe06dd80	-0.13170433
145	0x3db24ea5	0.087064065
146	0xbcca97a2	-0.024730507
147	0x3e66a77f	0.22524832
148	0x3d3dbd35	0.04632302
149	0xbcc74660	-0.02432555
150	0x3ec60441	0.3867512
151	0xbea5bd67	-0.32371065
152	0xbe4f50a3	-0.20245604
153	0x3dafdea0	0.08587384
154	0x3e42b42b	0.19014041
155	0x3e00966e	0.12557384
156	0x3e301c3f	0.17198275
157	0xbef7bdd5	-0.48387018
158	0x3ee57495	0.44815508
159	0x3d8b680d	0.068069555
160	0xbec93dab	-0.3930486
161	0x3e1fceb2	0.15606192
162	0x3c1a32d8	0.009411536
163	0x3d94cfd9	0.07266206
164	0x3e25bbdb	0.16184942
165	0xbe65a1c4	-0.2242499
166	0x3e543be9	0.20725979
167	0x3d923bc8	0.071403086
168	0xbeb6ec20	-0.35727024
169	0xbded9d80	-0.11602306
170	0xbcac67de	-0.021045621
171	0xbd22fdb9	-0.03979275
172	0x3e403ba9	0.18772759
173	0x3df3c96d	0.11903653
174	0xbf3c02a4	-0.7344153
175	0xbeda013e	-0.42579073
176	0xbde8bf80	-0.11364651
177	0xbe8dca8b	-0.2769359
178	0x3e40393a	0.1877183
179	0x3d380872	0.04492993
180	0xbf257107	-0.6462559
181	0xbe2f44dd	-0.17116113
182	0xbebaf735	-0.3651673
183	0xbe54c0f3	-0.2077673
184	0xbe610939	-0.21976174
185	0xbd8a891e	-0.06764434
186	0xbef82223	-0.48463544
187	0xbe6d0976	-0.2314814
188	0x3d8602fc	0.06543538
189	0x3de328bf	0.11091756
190	0x3de4f14f	0.111788385
191	0xbebfd849	-0.374697
192	0x3e5ec3af	0.21754335
193	0x3d80f5d6	0.062968895
194	0xbe7c6517	-0.24647938
195	0x3d87f89d	0.06639216
196	0xbeba6f55	-0.36413065
197	0xbe84a358	-0.2590587
198	0xbe1d7d94	-0.15379936
199	0x3cc2f5ae	0.02379879
200	0xbdfb95b0	-0.1228441
201	0x3dd1e50a	0.10248764
202	0xbdeb3fc9	-0.114867754
203	0x3e5a6717	0.21328388
204	0x3db96fee	0.09054552
205	0xbe73c9fc	-0.2380752
206	0xbeca947c	-0.3956641
207	0xbed00f03	-0.40636453
208	0xbe093be2	-0.1340175
209	0xbd4bcca9	-0.049755726
210	0x3dc3abc4	0.09554246
211	0xbef1284b	-0.47101054
212	0xbda3aa5c	-0.07991478
213	0xbe8fdcc7	-0.28098127
214	0x3e1e2677	0.1544436
215	0xbd10e2ff	-0.03537273
216	0x3c448281	0.011994005
217	0xbed0f664	-0.4081298
218	0xbeccb09c	-0.39978492
219	0xbe984a32	-0.29744107
220	0x3e59d3f5	0.21272261
221	0x3d84741b	0.06467458
222	0xbd99c16c	-0.075075954
223	0x3d30af07	0.04313567
224	0xbd289be6	-0.0411643
225	0x3d0d2122	0.034455426
226	0x3e353d6c	0.17699212
227	0xbc113c1d	-0.00886443
228	0xbdb8707e	-0.09005831
229	0x3dafe8b0	0.085893035
230	0xbd6fb7f3	-0.058525037
231	0x3df99802	0.12187196
232	0x3cd5072b	0.026004395
233	0x3dcd9a11	0.100391515
234	0xbd0e3395	-0.03471716
235	0xbc82fc83	-0.015989548
236	0xbc82d07f	-0.01596856
237	0xbc6e8c45	-0.01455981
238	0x3e52b0d9	0.20575275
239	0xbe460582	-0.19338039
240	0xbe274480	-0.16334724
241	0x3ede0621	0.4336405
242	0x3e5b511b	0.21417658
243	0xbe3729a5	-0.1788698
244	0xbe6ed349	-0.23322786
245	0xbb8ed46a	-0.004358818
246	0xbeaf66f9	-0.3425825
247	0x3e27737e	0.1635265
248	0x3d8a3440	0.06748247
249	0x3d09d1fb	0.03364752
250	0xbbf990b4	-0.007616127
251	0xbe96a2c8	-0.29421067
252	0xbe58eb6b	-0.21183555
253	0xbe878d63	-0.26475057
254	0xbb9b9052	-0.004747429
255	0xbd78cb29	-0.060740624

shared_layer2.bias f4 [128]
0	0x3e47c2b0	0.19507861
1	0x3e72e726	0.23720989
2	0xbd8d6641	-0.06904269
3	0x3dda9cef	0.10674464
4	0xbd02ba91	-0.031916205
5	0xbdc071d3	-0.0939671
6	0xbdebd120	-0.11514497
7	0x3dcf3304	0.10117152
8	0xbdb8b167	-0.09018212
9	0xbd653c93	-0.05596597
10	0x3db4164d	0.08793316
11	0xbdc59feb	-0.096496426
12	0x3dc7f231	0.09762991
13	0x3e48195c	0.19540924
14	0x3b4208ed	0.002960737
15	0x3e50bd20	0.20384645
16	0xbd765d0b	-0.060147326
17	0xbdad85d6	-0.08472793
18	0xbd80e6e5	-0.0629404
19	0xbd8201e6	-0.06348018
20	0xbceea60f	-0.029131917
21	0xbda0377b	-0.07823082
22	0xbd8c1e90	-0.06841767
23	0x3d8c4078	0.06848234
24	0x3d6335c0	0.055471182
25	0xbd738867	-0.059456255
26	0xbcb63684	-0.022242792
27	0x3c4cec1e	0.012507467
28	0xbde4a3cd	-0.11164055
29	0xbdd273ac	-0.10275969
30	0x3c85376f	0.016261784
31	0xbd891ae4	-0.06694582
32	0x3e3154fa	0.17317572
33	0xbdab215a	-0.08355971
34	0xbce96505	-0.028490553
35	0x3c810310	0.01574853
36	0x3e09bbac	0.13450497
37	0x3d012f96	0.031539522
38	0x3e0b5278	0.13605678
39	0x3cbf20fd	0.02333116
40	0xbe05777b	-0.1303386
41	0xbcb4027c	-0.02197384
42	0xbdcd71e4	-0.100314885
43	0x3ec29b3f	0.38009068
44	0x3d0f5075	0.03498884
45	0xbdd1c7e8	-0.10243207
46	0x3d1a8584	0.037724987
47	0x3d8e0b12	0.06935705
48	0xbde10bd7	-0.109885864
49	0xbdb55f67	-0.08856087
50	0x3e1a4acd	0.15067597
51	0xbdc5f3fa	-0.096656755
52	0xbd845bdb	-0.064628325
53	0xbd31db32	-0.04342193
54	0x3d89678a	0.06709202
55	0x3c49a5f1	0.01230763
56	0xbd5aa04f	-0.05337554
57	0xbc6edffd	-0.01457977
58	0x3d45f980	0.048333645
59	0x3d8a3960	0.06749225
60	0xbcafbf64	-0.021453567
61	0xbdb41a52	-0.08794083
62	0xbdefef9c	-0.11715624
63	0x3cfc7047	0.030815257
64	0x3d5a5b44	0.053309694
65	0xbe53b6c5	-0.2067519
66	0xbd8f8368	-0.07007486
67	0xbc17c071	-0.00926219
68	0x3c4f97df	0.012670486
69	0x3b475a59	0.0030418842
70	0x3d4084d9	0.047001693
71	0x3d2d3f96	0.04229697
72	0x3e101158	0.14069116
73	0x3cab23d1	0.020891102
74	0x3e275a9a	0.16343156
75	0xbd83755b	-0.06418868
76	0x3d96a5e7	0.07355862
77	0xbcfae475	-0.030626515
78	0x3cb8789c	0.022518449
79	0xbc9a5297	-0.01883821
80	0x3e3ec92d	0.1863143
81	0xbdd92a76	-0.10603802
82	0xbc99a961	-0.018757524
83	0xbdc4650b	-0.09589585
84	0xbb30e50c	-0.0026991991
85	0x3e29aa22	0.16568807
86	0xbd72e176	-0.059297048
87	0x3dce5056	0.100739166
88	0xbb6f290b	-0.003649297
89	0x3d303c90	0.043026507
90	0xbdedffb8	-0.1162104
91	0xbba711f2	-0.005098575
92	0x3e3bb77b	0.18331711
93	0xbdf2db3a	-0.118582204
94	0xbd884beb	-0.06655105
95	0x3bfc2c38	0.007695701
96	0xbd859390	-0.06522286
97	0x3bae0277	0.0053103524
98	0xbb9ef9d1	-0.004851558
99	0x3c6b249b	0.014351989
100	0x3e4bc8f8	0.19900882
101	0x39caab02	0.00038655853
102	0xbdb7055b	-0.08936568
103	0xbd75135f	-0.059832927
104	0xbc34c3b2	-0.0110329855
105	0xbdb9eb7b	-0.090781175
106	0xbdd52c17	-0.104088
107	0x3d08608a	0.03329519
108	0x3d04c544	0.03241469
109	0xbd06b39b	-0.03288613
110	0x3e7a4924	0.24441963
111	0x3e03e769	0.12881245
112	0xbd9fa091	-0.077942975
113	0xbdbce5b2	-0.092234984
114	0xbcb0293b	-0.021504035
115	0xbbda6047	-0.006664309
116	0x3e61fd46	0.22069272
117	0x3cbb37a6	0.022853684
118	0xbda8a904	-0.08235362
119	0xbe07d875	-0.13266166
120	0x3e7b13bb	0.24519245
121	0xbcf1ba6e	-0.029507842
122	0xbdb4be67	-0.08825379
123	0xbdeea307	-0.11652189
124	0xbc83bd25	-0.016081402
125	0x3c88a5ce	0.016680624
126	0x3ce94a16	0.02847771
127	0x3d960139	0.07324452

action_layer.weight f4 [4, 128]
0	0xbe847cb8	-0.25876403
1	0xbec50451	-0.38479856
2	0xbd4c202c	-0.04983537
3	0xbe98260b	-0.29716524
4	0xbd4b693e	-0.049660914
5	0x3e0f490f	0.13992713
6	0xbc8a2926	-0.016865324
7	0xbeda8ccf	-0.42685553
8	0xbdafd7d2	-0.08586086
9	0xbd49df56	-0.049285255
10	0x3e4634c0	0.1935606
11	0xbea838a6	-0.3285572
12	0x3ec49dc2	0.3840161
13	0xbe9ed131	-0.31018975
14	0x3d78f664	0.06078185
15	0xbe318d79	-0.17339124
16	0x3dc34353	0.095343255
17	0xbc409f39	-0.011756712
18	0x3dde8d54	0.108668
19	0x3c675040	0.014118254
20	0x3d49d550	0.049275696
21	0xbd6aff70	-0.05737251
22	0x3ce94210	0.028473884
23	0xbe4d4839	-0.20047082
24	0xbdd6637f	-0.10468196
25	0xbcb81083	-0.02246881
26	0x3d6796c3	0.056540262
27	0xbd313bef	-0.043270048
28	0x3cd21b96	0.02564792
29	0x3d47ccb6	0.048779212
30	0x3dc2f7b2	0.095199004
31	0xbc248ae6	-0.010042882
32	0xbe701caf	-0.23448442
33	0x3c27b34d	0.01023562
34	0xbd192b55	-0.03739484
35	0xbeb1d4fb	-0.34732804
36	0xbe75ccf4	-0.24003965
37	0xbd0e06c0	-0.034674406
38	0xbe23d69d	-0.15999837
39	0x3ed1c2e6	0.40969008
40	0xbe4a2d51	-0.1974385
41	0xbd11959e	-0.035543077
42	0x3da1ba0e	0.07896815
43	0x3f0ee4d4	0.55817914
44	0x3f028f6a	0.5100008
45	0xbce3e7f1	-0.02782056
46	0x3d3a5e83	0.04550029
47	0x3cbd8bfd	0.02313804
48	0x3d60153d	0.054707754
49	0x3d439ef9	0.04775903
50	0xbeaad116	-0.33362645
51	0xbd9b4a7e	-0.07582568
52	0x3d02c162	0.031922705
53	0xbdc6547e	-0.09684084
54	0xbe88103c	-0.26574886
55	0xbcec88ba	-0.02887379
56	0x3d0bd616	0.034139715
57	0x3d590a04	0.052988067
58	0x3db36d5c	0.08761093
59	0xbeb8e530	-0.36112356
60	0x3d0d477a	0.034491993
61	0xbd037a9c	-0.03209935
62	0xbdb4b131	-0.08822859
63	0x3d3d5f98	0.046233743
64	0x3d3e34f8	0.046437234
65	0xbe461596	-0.19344172
66	0x3d08be38	0.03338453
67	0x3be6dd26	0.007045406
68	0x3dba5700	0.09098625
69	0x3ca594c9	0.020212548
70	0x3c245ff1	0.01003264
71	0x3cbcbe0b	0.023039838
72	0xbe865d73	-0.2624317
73	0xbe6120db	-0.2198519
74	0xbeb003ab	-0.34377798
75	0x3d77b873	0.06047864
76	0xbed5984d	-0.4171776
77	0xbdc8f199	-0.09811706
78	0x3ea84eec	0.32872713
79	0x3e87caf6	0.26522034
80	0xbe689f64	-0.22717053
81	0x3d37a1b5	0.04483195
82	0x3de81a65	0.11333159
83	0x3dedfd92	0.1162063
84	0xbda14b64	-0.07875708
85	0xbeb23ce9	-0.34812096
86	0xbda8e3d1	-0.082465775
87	0xbd423991	-0.04741818
88	0x39a1e01e	0.00030875293
89	0xbeb43580	-0.35197067
90	0x3d5103b6	0.05102893
91	0x3d8b647f	0.068062775
92	0xbe95b607	-0.29240438
93	0xbd037197	-0.03209075
94	0xbc750c45	-0.014956539
95	0x3edfb534	0.43692935
96	0xbd2ff7a9	-0.042960797
97	0xbdd49130	-0.10379255
98	0xbcc52294	-0.02406434
99	0xbdb4ac88	-0.0882197
100	0xbe7a7a39	-0.24460687
101	0x3d27f44e	0.04100447
102	0x3d0b5435	0.034015853
103	0xbca8acc2	-0.02059019
104	0x3d8b83d8	0.068122566
105	0x3cd1e6a7	0.025622679
106	0x3df6a172	0.12042512
107	0xbd7b2ef0	-0.06132406
108	0xbc89778b	-0.016780635
109	0x3d63d422	0.055622227
110	0xbe8050b7	-0.2506158
111	0x3eb2c7d0	0.3491807
112	0xbc082bae	-0.008311195
113	0x3cac0678	0.020999178
114	0x3da971cc	0.08273658
115	0x3b84688a	0.0040407823
116	0xbedba4ce	-0.42899173
117	0x3e95909c	0.2921189
118	0x3d92049f	0.07129788
119	0xbb9971df	-0.004682764
120	0xbe65c3e5	-0.22438009
121	0xbd46b0ea	-0.048508562
122	0x3dfab58f	0.12241661
123	0x3c241bff	0.01001644
124	0x3d41be57	0.047300663
125	0x3c87ea76	0.016591292
126	0x3d0466e2	0.03232468
127	0xbe8ea0d5	-0.2785708
128	0xbe978804	-0.2959596
129	0xbe2f4069	-0.17114414
130	0x3c87b054	0.016563572
131	0xbe24b6b7	-0.16085325
132	0xbd668a4d	-0.056284238
133	0xbd78a5e8	-0.060705096
134	0x3cd83d74	0.02639649
135	0x3d33da16	0.043909155
136	0x3d5fa5c2	0.05460144
137	0x3c8a3ccb	0.016874691
138	0xbe11fa0e	-0.14255545
139	0xbddeb444	-0.10874227
140	0x3eaed71d	0.34148493
141	0xbe946fe9	-0.2899163
142	0x3c95fa95	0.018307963
143	0xbec7e3fb	-0.39041123
144	0x3dfe2cfe	0.12410925
145	0x3d3b49ae	0.045724563
146	0x3d743d6e	0.059628896
147	0x3c9113f9	0.017709719
148	0x3d48cf1f	0.04902565
149	0xbd1b6bbc	-0.03794454
150	0xbc6de95e	-0.014520971
151	0x3ea306f4	0.31841242
152	0x3d064746	0.032782815
153	0x3d6622a6	0.056185387
154	0x3d953547	0.072855525
155	0xbd7093e2	-0.058734782
156	0xbda33c64	-0.07970503
157	0x3d1138bb	0.035454493
158	0x3ec263a5	0.37966648
159	0xbd532b13	-0.05155475
160	0xbec2aa75	-0.38020673
161	0xbce0c25f	-0.027436433
162	0x3d66a0af	0.056305584
163	0xbe07667a	-0.13222685
164	0xbdc3b0e8	-0.095552266
165	0xbc86ca53	-0.016453898
166	0xbe7c626b	-0.24646918
167	0x3edbfebc	0.42967784
168	0x3e2ce605	0.1688462
169	0x3df23504	0.11826518
170	0xbd52642c	-0.051365063
171	0xbe8acf4e	-0.27111286
172	0x3b87cc82	0.0041442523
173	0xbceeb43b	-0.029138675
174	0x3b201b33	0.0024430274
175	0x3b0dd727	0.0021643133
176	0x3cf19d87	0.02949406
177	0x3d1b31f2	0.03788943
178	0x3e2f4bec	0.17118806
179	0x3cb8b59e	0.02254754
180	0xbc8ca948	-0.017170563
181	0x3cc1656c	0.023607932
182	0xbe8d9b57	-0.27657577
183	0xbd9c95d6	-0.076457664
184	0x3cbf0120	0.023315966
185	0x3d0ea813	0.034828257
186	0xbd7274b7	-0.05919334
187	0xbe2cc19c	-0.16870731
188	0xbdbdaf0c	-0.09261903
189	0xbd153483	-0.036427032
190	0x3d35b589	0.04436258
191	0x3a1d8139	0.00060083304
192	0x3cdf9c43	0.027296191
193	0x3cd16ae7	0.02556367
194	0xbc9c54b2	-0.019083355
195	0xbcd3bc37	-0.025846584
196	0xbd58cdd9	-0.052930687
197	0xbce3e559	-0.027819322
198	0x3c96cad3	0.018407261
199	0x3bb34de5	0.0054719322
200	0xbed4b89f	-0.41547105
201	0x3bf6d5d9	0.007532817
202	0xbe93369e	-0.28752607
203	0xbd04f1a6	-0.032457016
204	0xbc31abcc	-0.010844182
205	0x3ddad690	0.10685456
206	0x3ea6bc92	0.32565743
207	0xbd4cc94d	-0.049996663
208	0xbec9cdd9	-0.39414862
209	0x3de630ae	0.11239754
210	0xbe454bf2	-0.19267252
211	0x3e82ba7b	0.25532898
212	0xbd95972f	-0.073042266
213	0x3d5ad0ae	0.05342167
214	0x3d4eec26	0.050518177
215	0x3edb8421	0.42874244
216	0x36c53080	5.8767037e-06
217	0x3e81cc30	0.25351095
218	0xbd0cb352	-0.0343507
219	0xbd031803	-0.03200532
220	0xbd39f916	-0.045403562
221	0x3ceee319	0.029161023
222	0xbc63450c	-0.0138714425
223	0x3e2b3a88	0.16721547
224	0xbcf3cae3	-0.02975983
225	0xbd678e2d	-0.056532074
226	0x3dbea880	0.093094826
227	0xbde8d582	-0.113688484
228	0xbdfd6d3c	-0.123743504
229	0x3c88e7fd	0.016712183
230	0xbcacddff	-0.02110195
231	0xbd7e1143	-0.06202818
232	0x3de68c38	0.11257213
233	0x3dde7364	0.10861853
234	0x3d48d66d	0.049032617
235	0x3d20d926	0.03926959
236	0x3d00da41	0.031458143
237	0x3baa7462	0.005201862
238	0xbf02dbfd	-0.51116925
239	0xbddf6797	-0.1090843
240	0x3c7bdc46	0.0153723415
241	0x3c7b9187	0.015354521
242	0xbc8a662c	-0.016894422
243	0xbc7a3225	-0.015270744
244	0xbe3ad4e5	-0.18245275
245	0x3e96febd	0.29491225
246	0xbd16998a	-0.03676752
247	0x3c7669b5	0.015039851
248	0xbee6cdcd	-0.4507889
249	0xbd0c7e11	-0.034299914
250	0x3d986b32	0.07442321
251	0x3d650e2f	0.05592173
252	0x3dd98f33	0.10623016
253	0xbd95ed3f	-0.07320642
254	0x3d985acb	0.074391924
255	0xbe59b6b1	-0.21261097

action_layer.bias f4 [4]
0	0x3e34940c	0.176346
1	0xbd4e5050	-0.05036956
2	0x3ce0f91a	0.02746253
3	0xbd1f8722	-0.038947232

value_layer.weight f4 [1, 128]
0	0x3e282b84	0.1642285
1	0xbe284a36	-0.16434559
2	0x3d949653	0.072552346
3	0xbeb14d8d	-0.3462948
4	0xbd8baba9	-0.06819851
5	0x3da74223	0.081669115
6	0xbcdf83e9	-0.02728458
7	0x3e5ab0d4	0.21356517
8	0xbca3321b	-0.019921353
9	0x3dc7f0b8	0.0976271
10	0x3d8844e3	0.06653764
11	0x3e925158	0.28577685
12	0x3d952fda	0.072845176
13	0xbcef686c	-0.029224597
14	0xbc8c8937	-0.017155273
15	0x3e1441b5	0.1447819
16	0xbdb6747a	-0.08908935
17	0x3da41a55	0.08012835
18	0x3bb48fdc	0.0055103134
19	0x3dcdc989	0.100482054
20	0x3cd7879b	0.026309779
21	0xbcea0ca8	-0.028570488
22	0x3d082f04	0.033247963
23	0xbd818603	-0.06324389
24	0xbea4658a	-0.32108718
25	0xbc90e4ea	-0.01768728
26	0x3dc055bb	0.09391352
27	0x3dad1e39	0.0845303
28	0x3daa831f	0.083257906
29	0xbdaca7c5	-0.08430437
30	0x3e13c401	0.14430238
31	0xbd729fc7	-0.059234407
32	0x3d9d36e2	0.07676484
33	0x3ac45ed8	0.0014981879
34	0x3d2a8405	0.04162981
35	0x3e6c1d9b	0.23058169
36	0xbda528d1	-0.08064426
37	0x3d24982c	0.040184185
38	0xbe54963d	-0.20760436
39	0xbeef6a97	-0.4676101
40	0xbe23d151	-0.15997817
41	0xbd9ac76b	-0.07557567
42	0x3d3cad84	0.046063915
43	0xbef9bbbb	-0.4877604
44	0xbe152f8e	-0.14568922
45	0x3d67aac6	0.056559347
46	0x3d48dd37	0.049039092
47	0x3ca1e1db	0.019761017
48	0x3e0811d5	0.13288052
49	0x3b90c9c0	0.0044185817
50	0x3e0d722d	0.13813086
51	0x3d2c08dd	0.04200064
52	0x3d681894	0.056664065
53	0x3b462786	0.003023596
54	0xbe80d566	-0.2516281
55	0x3cd84b59	0.026403116
56	0xbcbe8ccc	-0.023260497
57	0xbd07527c	-0.033037648
58	0x3dc6d540	0.09708643
59	0xbdd03309	-0.10165984
60	0xbcdd31ad	-0.027001226
61	0xbde24742	-0.110487476
62	0x3aeb1610	0.0017935652
63	0x3dda8ef7	0.106718
64	0xbd8db175	-0.06918613
65	0x3e47c44c	0.19508475
66	0xbbc09045	-0.0058765733
67	0x3d33e929	0.04392353
68	0x3c77e115	0.015129347
69	0x3be97a7a	0.007125196
70	0x3c21ea02	0.009882452
71	0x3d365815	0.044517595
72	0x3e30a7b5	0.17251475
73	0xbed07d43	-0.40720567
74	0x3dbd558b	0.09244832
75	0xbdae0cc5	-0.08498529
76	0x3e0efc5c	0.13963455
77	0x3e1c412a	0.15259233
78	0x3e415873	0.18881397
79	0xbe9ff7ac	-0.31243646
80	0xbdfd5cea	-0.123712376
81	0xbe899557	-0.2687175
82	0x3d3e431e	0.046450727
83	0x3ec6c146	0.3881933
84	0x3d7681b9	0.060182307
85	0xbdb55540	-0.08854151
86	0xbc74b9dd	-0.014936891
87	0xbe27bc71	-0.16380478
88	0x3cd40073	0.02587912
89	0xbbce847b	-0.006302414
90	0x3cbe90e6	0.023262452
91	0xbd0d530d	-0.03450303
92	0x3e0329f8	0.12808979
93	0xb7bdd73d	-2.2630784e-05
94	0x3c522357	0.0128258085
95	0xbbac31f4	-0.0052549783
96	0xbd1fadfd	-0.038984288
97	0x3d8e136b	0.069372974
98	0xbcd49c4c	-0.025953434
99	0x3d8f2cc5	0.06990961
100	0x3e2c4310	0.16822457
101	0x3bcec275	0.006309802
102	0x3ca98ca6	0.02069695
103	0x3bd61b68	0.006534029
104	0x3d5d53e8	0.054035097
105	0x3dca68d0	0.09883273
106	0xbd894548	-0.067026675
107	0xbcf81989	-0.030285614
108	0x3d5acf71	0.053420488
109	0x3d84b178	0.06479162
110	0xbe5ac111	-0.21362711
111	0x3e32ee38	0.17473686
112	0xbc287ebf	-0.010284125
113	0x3d25f8b6	0.040520392
114	0x3d0ad89a	0.033897974
115	0x3d1ee7ca	0.03879527
116	0x3e62feae	0.22167465
117	0x3daaedf9	0.08346171
118	0x3d7b7787	0.061393287
119	0xbd46eda5	-0.04856648
120	0x3d74eda7	0.059796955
121	0x3d8a19f3	0.06743231
122	0x3d2a23a7	0.041537907
123	0xbd968591	-0.073496945
124	0xbd4075c7	-0.04698732
125	0xbcb333bc	-0.021875255
126	0x3e2b14e3	0.16707186
127	0x3e88bf68	0.2670853
